<?xml version="1.0"?>
<net name="Model0" version="11">
	<layers>
		<layer id="1" name="input_ids" type="Parameter" version="opset1">
			<data shape="1,?" element_type="i64" />
			<output>
				<port id="0" precision="I64" names="input_ids">
					<dim>1</dim>
					<dim>-1</dim>
				</port>
			</output>
		</layer>
		<layer id="0" name="attention_mask" type="Parameter" version="opset1">
			<data shape="1,?" element_type="i64" />
			<output>
				<port id="0" precision="I64" names="attention_mask">
					<dim>1</dim>
					<dim>-1</dim>
				</port>
			</output>
		</layer>
		<layer id="2" name="Constant_6793" type="Const" version="opset1">
			<data element_type="i64" shape="1, 1" offset="0" size="8" />
			<output>
				<port id="0" precision="I64">
					<dim>1</dim>
					<dim>1</dim>
				</port>
			</output>
		</layer>
		<layer id="3" name="__module.distilbert.transformer.layer.0.attention/aten::eq/Equal" type="Equal" version="opset1">
			<data auto_broadcast="numpy" />
			<input>
				<port id="0" precision="I64">
					<dim>1</dim>
					<dim>-1</dim>
				</port>
				<port id="1" precision="I64">
					<dim>1</dim>
					<dim>1</dim>
				</port>
			</input>
			<output>
				<port id="2" precision="BOOL" names="102,172,242,312,382,452">
					<dim>1</dim>
					<dim>-1</dim>
				</port>
			</output>
		</layer>
		<layer id="4" name="__module.distilbert.embeddings.word_embeddings/aten::embedding/Convert" type="Convert" version="opset1">
			<data destination_type="i32" />
			<input>
				<port id="0" precision="I64">
					<dim>1</dim>
					<dim>-1</dim>
				</port>
			</input>
			<output>
				<port id="1" precision="I32">
					<dim>1</dim>
					<dim>-1</dim>
				</port>
			</output>
		</layer>
		<layer id="5" name="ShapeOf_6967" type="ShapeOf" version="opset3">
			<data output_type="i64" />
			<input>
				<port id="0" precision="I32">
					<dim>1</dim>
					<dim>-1</dim>
				</port>
			</input>
			<output>
				<port id="1" precision="I64">
					<dim>2</dim>
				</port>
			</output>
		</layer>
		<layer id="6" name="Constant_6978" type="Const" version="opset1">
			<data element_type="i64" shape="1" offset="0" size="8" />
			<output>
				<port id="0" precision="I64">
					<dim>1</dim>
				</port>
			</output>
		</layer>
		<layer id="7" name="Constant_6979" type="Const" version="opset1">
			<data element_type="i64" shape="" offset="0" size="8" />
			<output>
				<port id="0" precision="I64" />
			</output>
		</layer>
		<layer id="8" name="Gather_6980" type="Gather" version="opset8">
			<data batch_dims="0" />
			<input>
				<port id="0" precision="I64">
					<dim>2</dim>
				</port>
				<port id="1" precision="I64">
					<dim>1</dim>
				</port>
				<port id="2" precision="I64" />
			</input>
			<output>
				<port id="3" precision="I64" names="149,219,289,359,429">
					<dim>1</dim>
				</port>
			</output>
		</layer>
		<layer id="9" name="__module.distilbert.transformer.layer.0.attention/prim::ListConstruct/Reshape_0" type="Const" version="opset1">
			<data element_type="i64" shape="1" offset="8" size="8" />
			<output>
				<port id="0" precision="I64">
					<dim>1</dim>
				</port>
			</output>
		</layer>
		<layer id="10" name="Constant_6987" type="Const" version="opset1">
			<data element_type="i64" shape="4" offset="16" size="32" />
			<output>
				<port id="0" precision="I64">
					<dim>4</dim>
				</port>
			</output>
		</layer>
		<layer id="11" name="__module.distilbert.transformer.layer.0.attention/aten::view/Reshape" type="Reshape" version="opset1">
			<data special_zero="true" />
			<input>
				<port id="0" precision="BOOL">
					<dim>1</dim>
					<dim>-1</dim>
				</port>
				<port id="1" precision="I64">
					<dim>4</dim>
				</port>
			</input>
			<output>
				<port id="2" precision="BOOL" names="104">
					<dim>1</dim>
					<dim>1</dim>
					<dim>1</dim>
					<dim>-1</dim>
				</port>
			</output>
		</layer>
		<layer id="12" name="Constant_207892" type="Const" version="opset1">
			<data element_type="i8" shape="30522, 768" offset="48" size="23440896" />
			<output>
				<port id="0" precision="I8">
					<dim>30522</dim>
					<dim>768</dim>
				</port>
			</output>
		</layer>
		<layer id="13" name="Convert_207893" type="Convert" version="opset1">
			<data destination_type="f32" />
			<input>
				<port id="0" precision="I8">
					<dim>30522</dim>
					<dim>768</dim>
				</port>
			</input>
			<output>
				<port id="1" precision="FP32">
					<dim>30522</dim>
					<dim>768</dim>
				</port>
			</output>
		</layer>
		<layer id="14" name="Constant_207894" type="Const" version="opset1">
			<data element_type="f32" shape="30522, 1" offset="23440944" size="122088" />
			<output>
				<port id="0" precision="FP32">
					<dim>30522</dim>
					<dim>1</dim>
				</port>
			</output>
		</layer>
		<layer id="15" name="__module.distilbert.embeddings.word_embeddings/aten::embedding/Gather/fq_weights_0" type="Multiply" version="opset1">
			<data auto_broadcast="numpy" />
			<input>
				<port id="0" precision="FP32">
					<dim>30522</dim>
					<dim>768</dim>
				</port>
				<port id="1" precision="FP32">
					<dim>30522</dim>
					<dim>1</dim>
				</port>
			</input>
			<output>
				<port id="2" precision="FP32">
					<dim>30522</dim>
					<dim>768</dim>
				</port>
			</output>
		</layer>
		<layer id="16" name="__module.distilbert.embeddings.word_embeddings/aten::embedding/Constant" type="Const" version="opset1">
			<data element_type="i32" shape="" offset="23563032" size="4" />
			<output>
				<port id="0" precision="I32" />
			</output>
		</layer>
		<layer id="17" name="__module.distilbert.embeddings.word_embeddings/aten::embedding/Gather" type="Gather" version="opset8">
			<data batch_dims="0" />
			<input>
				<port id="0" precision="FP32">
					<dim>30522</dim>
					<dim>768</dim>
				</port>
				<port id="1" precision="I32">
					<dim>1</dim>
					<dim>-1</dim>
				</port>
				<port id="2" precision="I32" />
			</input>
			<output>
				<port id="3" precision="FP32" names="47,input_embeds">
					<dim>1</dim>
					<dim>-1</dim>
					<dim>768</dim>
				</port>
			</output>
		</layer>
		<layer id="18" name="Constant_207896" type="Const" version="opset1">
			<data element_type="i8" shape="512, 768" offset="23563036" size="393216" />
			<output>
				<port id="0" precision="I8">
					<dim>512</dim>
					<dim>768</dim>
				</port>
			</output>
		</layer>
		<layer id="19" name="Convert_207897" type="Convert" version="opset1">
			<data destination_type="f32" />
			<input>
				<port id="0" precision="I8">
					<dim>512</dim>
					<dim>768</dim>
				</port>
			</input>
			<output>
				<port id="1" precision="FP32">
					<dim>512</dim>
					<dim>768</dim>
				</port>
			</output>
		</layer>
		<layer id="20" name="Constant_207898" type="Const" version="opset1">
			<data element_type="f32" shape="512, 1" offset="23956252" size="2048" />
			<output>
				<port id="0" precision="FP32">
					<dim>512</dim>
					<dim>1</dim>
				</port>
			</output>
		</layer>
		<layer id="21" name="__module.distilbert.embeddings.position_embeddings/aten::embedding/Gather/fq_weights_0" type="Multiply" version="opset1">
			<data auto_broadcast="numpy" />
			<input>
				<port id="0" precision="FP32">
					<dim>512</dim>
					<dim>768</dim>
				</port>
				<port id="1" precision="FP32">
					<dim>512</dim>
					<dim>1</dim>
				</port>
			</input>
			<output>
				<port id="2" precision="FP32">
					<dim>512</dim>
					<dim>768</dim>
				</port>
			</output>
		</layer>
		<layer id="22" name="__module.distilbert.embeddings/aten::slice/Slice" type="Const" version="opset1">
			<data element_type="i64" shape="1, 512" offset="23958300" size="4096" />
			<output>
				<port id="0" precision="I64" names="49">
					<dim>1</dim>
					<dim>512</dim>
				</port>
			</output>
		</layer>
		<layer id="23" name="__module.distilbert.embeddings/aten::slice/Reshape" type="Const" version="opset1">
			<data element_type="i64" shape="1" offset="0" size="8" />
			<output>
				<port id="0" precision="I64">
					<dim>1</dim>
				</port>
			</output>
		</layer>
		<layer id="24" name="Constant_6968" type="Const" version="opset1">
			<data element_type="i64" shape="1" offset="8" size="8" />
			<output>
				<port id="0" precision="I64">
					<dim>1</dim>
				</port>
			</output>
		</layer>
		<layer id="25" name="Constant_6969" type="Const" version="opset1">
			<data element_type="i64" shape="" offset="0" size="8" />
			<output>
				<port id="0" precision="I64" />
			</output>
		</layer>
		<layer id="26" name="Gather_6970" type="Gather" version="opset8">
			<data batch_dims="0" />
			<input>
				<port id="0" precision="I64">
					<dim>2</dim>
				</port>
				<port id="1" precision="I64">
					<dim>1</dim>
				</port>
				<port id="2" precision="I64" />
			</input>
			<output>
				<port id="3" precision="I64" names="48">
					<dim>1</dim>
				</port>
			</output>
		</layer>
		<layer id="27" name="__module.distilbert.embeddings/aten::slice/Reshape_2" type="Const" version="opset1">
			<data element_type="i64" shape="1" offset="8" size="8" />
			<output>
				<port id="0" precision="I64">
					<dim>1</dim>
				</port>
			</output>
		</layer>
		<layer id="28" name="__module.distilbert.embeddings/aten::slice/Reshape_3" type="Const" version="opset1">
			<data element_type="i64" shape="1" offset="8" size="8" />
			<output>
				<port id="0" precision="I64">
					<dim>1</dim>
				</port>
			</output>
		</layer>
		<layer id="29" name="__module.distilbert.embeddings/aten::slice/Slice_1" type="Slice" version="opset8">
			<input>
				<port id="0" precision="I64">
					<dim>1</dim>
					<dim>512</dim>
				</port>
				<port id="1" precision="I64">
					<dim>1</dim>
				</port>
				<port id="2" precision="I64">
					<dim>1</dim>
				</port>
				<port id="3" precision="I64">
					<dim>1</dim>
				</port>
				<port id="4" precision="I64">
					<dim>1</dim>
				</port>
			</input>
			<output>
				<port id="5" precision="I64" names="50">
					<dim>1</dim>
					<dim>-1</dim>
				</port>
			</output>
		</layer>
		<layer id="30" name="__module.distilbert.embeddings.position_embeddings/aten::embedding/Convert" type="Convert" version="opset1">
			<data destination_type="i32" />
			<input>
				<port id="0" precision="I64">
					<dim>1</dim>
					<dim>-1</dim>
				</port>
			</input>
			<output>
				<port id="1" precision="I32">
					<dim>1</dim>
					<dim>-1</dim>
				</port>
			</output>
		</layer>
		<layer id="31" name="__module.distilbert.embeddings.position_embeddings/aten::embedding/Constant" type="Const" version="opset1">
			<data element_type="i32" shape="" offset="23563032" size="4" />
			<output>
				<port id="0" precision="I32" />
			</output>
		</layer>
		<layer id="32" name="__module.distilbert.embeddings.position_embeddings/aten::embedding/Gather" type="Gather" version="opset8">
			<data batch_dims="0" />
			<input>
				<port id="0" precision="FP32">
					<dim>512</dim>
					<dim>768</dim>
				</port>
				<port id="1" precision="I32">
					<dim>1</dim>
					<dim>-1</dim>
				</port>
				<port id="2" precision="I32" />
			</input>
			<output>
				<port id="3" precision="FP32" names="52,position_embeddings.1">
					<dim>1</dim>
					<dim>-1</dim>
					<dim>768</dim>
				</port>
			</output>
		</layer>
		<layer id="33" name="__module.distilbert.embeddings/aten::add/Add" type="Add" version="opset1">
			<data auto_broadcast="numpy" />
			<input>
				<port id="0" precision="FP32">
					<dim>1</dim>
					<dim>-1</dim>
					<dim>768</dim>
				</port>
				<port id="1" precision="FP32">
					<dim>1</dim>
					<dim>-1</dim>
					<dim>768</dim>
				</port>
			</input>
			<output>
				<port id="2" precision="FP32" names="53">
					<dim>1</dim>
					<dim>-1</dim>
					<dim>768</dim>
				</port>
			</output>
		</layer>
		<layer id="34" name="__module.distilbert.embeddings.LayerNorm/aten::layer_norm/Multiply" type="Const" version="opset1">
			<data element_type="i32" shape="1" offset="23962396" size="4" />
			<output>
				<port id="0" precision="I32">
					<dim>1</dim>
				</port>
			</output>
		</layer>
		<layer id="35" name="__module.distilbert.embeddings.LayerNorm/aten::layer_norm/MVN" type="MVN" version="opset6">
			<data eps="9.999999960041972e-13" normalize_variance="true" eps_mode="INSIDE_SQRT" />
			<input>
				<port id="0" precision="FP32">
					<dim>1</dim>
					<dim>-1</dim>
					<dim>768</dim>
				</port>
				<port id="1" precision="I32">
					<dim>1</dim>
				</port>
			</input>
			<output>
				<port id="2" precision="FP32">
					<dim>1</dim>
					<dim>-1</dim>
					<dim>768</dim>
				</port>
			</output>
		</layer>
		<layer id="36" name="Constant_6794" type="Const" version="opset1">
			<data element_type="f32" shape="1, 1, 768" offset="23962400" size="3072" />
			<output>
				<port id="0" precision="FP32">
					<dim>1</dim>
					<dim>1</dim>
					<dim>768</dim>
				</port>
			</output>
		</layer>
		<layer id="37" name="__module.distilbert.embeddings.LayerNorm/aten::layer_norm/Multiply_1" type="Multiply" version="opset1">
			<data auto_broadcast="numpy" />
			<input>
				<port id="0" precision="FP32">
					<dim>1</dim>
					<dim>-1</dim>
					<dim>768</dim>
				</port>
				<port id="1" precision="FP32">
					<dim>1</dim>
					<dim>1</dim>
					<dim>768</dim>
				</port>
			</input>
			<output>
				<port id="2" precision="FP32">
					<dim>1</dim>
					<dim>-1</dim>
					<dim>768</dim>
				</port>
			</output>
		</layer>
		<layer id="38" name="Constant_6795" type="Const" version="opset1">
			<data element_type="f32" shape="1, 1, 768" offset="23965472" size="3072" />
			<output>
				<port id="0" precision="FP32">
					<dim>1</dim>
					<dim>1</dim>
					<dim>768</dim>
				</port>
			</output>
		</layer>
		<layer id="39" name="__module.distilbert.embeddings.LayerNorm/aten::layer_norm/Add" type="Add" version="opset1">
			<data auto_broadcast="numpy" />
			<input>
				<port id="0" precision="FP32">
					<dim>1</dim>
					<dim>-1</dim>
					<dim>768</dim>
				</port>
				<port id="1" precision="FP32">
					<dim>1</dim>
					<dim>1</dim>
					<dim>768</dim>
				</port>
			</input>
			<output>
				<port id="2" precision="FP32" names="57,input.1">
					<dim>1</dim>
					<dim>-1</dim>
					<dim>768</dim>
				</port>
			</output>
		</layer>
		<layer id="40" name="__module.distilbert.embeddings.LayerNorm/aten::layer_norm/Add_0_0/nncf_smooth_quant/scale" type="Const" version="opset1">
			<data element_type="f32" shape="1, 1, 768" offset="23968544" size="3072" />
			<output>
				<port id="0" precision="FP32">
					<dim>1</dim>
					<dim>1</dim>
					<dim>768</dim>
				</port>
			</output>
		</layer>
		<layer id="41" name="__module.distilbert.embeddings.LayerNorm/aten::layer_norm/Add_0_0/nncf_smooth_quant" type="Multiply" version="opset1">
			<data auto_broadcast="numpy" />
			<input>
				<port id="0" precision="FP32">
					<dim>1</dim>
					<dim>-1</dim>
					<dim>768</dim>
				</port>
				<port id="1" precision="FP32">
					<dim>1</dim>
					<dim>1</dim>
					<dim>768</dim>
				</port>
			</input>
			<output>
				<port id="2" precision="FP32">
					<dim>1</dim>
					<dim>-1</dim>
					<dim>768</dim>
				</port>
			</output>
		</layer>
		<layer id="42" name="__module.distilbert.embeddings.LayerNorm/aten::layer_norm/Add_0_0/nncf_smooth_quant/fq_output_0/input_low" type="Const" version="opset1">
			<data element_type="f32" shape="" offset="23971616" size="4" />
			<output>
				<port id="0" precision="FP32" />
			</output>
		</layer>
		<layer id="43" name="__module.distilbert.embeddings.LayerNorm/aten::layer_norm/Add_0_0/nncf_smooth_quant/fq_output_0/input_high" type="Const" version="opset1">
			<data element_type="f32" shape="" offset="23971620" size="4" />
			<output>
				<port id="0" precision="FP32" />
			</output>
		</layer>
		<layer id="44" name="__module.distilbert.embeddings.LayerNorm/aten::layer_norm/Add_0_0/nncf_smooth_quant/fq_output_0/output_low" type="Const" version="opset1">
			<data element_type="f32" shape="" offset="23971616" size="4" />
			<output>
				<port id="0" precision="FP32" />
			</output>
		</layer>
		<layer id="45" name="__module.distilbert.embeddings.LayerNorm/aten::layer_norm/Add_0_0/nncf_smooth_quant/fq_output_0/output_high" type="Const" version="opset1">
			<data element_type="f32" shape="" offset="23971620" size="4" />
			<output>
				<port id="0" precision="FP32" />
			</output>
		</layer>
		<layer id="46" name="__module.distilbert.embeddings.LayerNorm/aten::layer_norm/Add_0_0/nncf_smooth_quant/fq_output_0" type="FakeQuantize" version="opset1">
			<data levels="256" auto_broadcast="numpy" />
			<input>
				<port id="0" precision="FP32">
					<dim>1</dim>
					<dim>-1</dim>
					<dim>768</dim>
				</port>
				<port id="1" precision="FP32" />
				<port id="2" precision="FP32" />
				<port id="3" precision="FP32" />
				<port id="4" precision="FP32" />
			</input>
			<output>
				<port id="5" precision="FP32">
					<dim>1</dim>
					<dim>-1</dim>
					<dim>768</dim>
				</port>
			</output>
		</layer>
		<layer id="47" name="Constant_207900" type="Const" version="opset1">
			<data element_type="i8" shape="768, 768" offset="23971624" size="589824" />
			<output>
				<port id="0" precision="I8">
					<dim>768</dim>
					<dim>768</dim>
				</port>
			</output>
		</layer>
		<layer id="48" name="Convert_207901" type="Convert" version="opset1">
			<data destination_type="f32" />
			<input>
				<port id="0" precision="I8">
					<dim>768</dim>
					<dim>768</dim>
				</port>
			</input>
			<output>
				<port id="1" precision="FP32">
					<dim>768</dim>
					<dim>768</dim>
				</port>
			</output>
		</layer>
		<layer id="49" name="Constant_207902" type="Const" version="opset1">
			<data element_type="f32" shape="768, 1" offset="24561448" size="3072" />
			<output>
				<port id="0" precision="FP32">
					<dim>768</dim>
					<dim>1</dim>
				</port>
			</output>
		</layer>
		<layer id="50" name="__module.distilbert.transformer.layer.0.attention.q_lin/aten::linear/MatMul/fq_weights_1" type="Multiply" version="opset1">
			<data auto_broadcast="numpy" />
			<input>
				<port id="0" precision="FP32">
					<dim>768</dim>
					<dim>768</dim>
				</port>
				<port id="1" precision="FP32">
					<dim>768</dim>
					<dim>1</dim>
				</port>
			</input>
			<output>
				<port id="2" precision="FP32">
					<dim>768</dim>
					<dim>768</dim>
				</port>
			</output>
		</layer>
		<layer id="51" name="__module.distilbert.transformer.layer.0.attention.q_lin/aten::linear/MatMul" type="MatMul" version="opset1">
			<data transpose_a="false" transpose_b="true" />
			<input>
				<port id="0" precision="FP32">
					<dim>1</dim>
					<dim>-1</dim>
					<dim>768</dim>
				</port>
				<port id="1" precision="FP32">
					<dim>768</dim>
					<dim>768</dim>
				</port>
			</input>
			<output>
				<port id="2" precision="FP32">
					<dim>1</dim>
					<dim>-1</dim>
					<dim>768</dim>
				</port>
			</output>
		</layer>
		<layer id="52" name="Constant_6796" type="Const" version="opset1">
			<data element_type="f32" shape="1, 1, 768" offset="24564520" size="3072" />
			<output>
				<port id="0" precision="FP32">
					<dim>1</dim>
					<dim>1</dim>
					<dim>768</dim>
				</port>
			</output>
		</layer>
		<layer id="53" name="__module.distilbert.transformer.layer.0.attention.q_lin/aten::linear/Add" type="Add" version="opset1">
			<data auto_broadcast="numpy" />
			<input>
				<port id="0" precision="FP32">
					<dim>1</dim>
					<dim>-1</dim>
					<dim>768</dim>
				</port>
				<port id="1" precision="FP32">
					<dim>1</dim>
					<dim>1</dim>
					<dim>768</dim>
				</port>
			</input>
			<output>
				<port id="2" precision="FP32" names="83,x.1">
					<dim>1</dim>
					<dim>-1</dim>
					<dim>768</dim>
				</port>
			</output>
		</layer>
		<layer id="54" name="__module.distilbert.transformer.layer.0.attention/prim::ListConstruct/Concat_1" type="Const" version="opset1">
			<data element_type="i64" shape="4" offset="24567592" size="32" />
			<output>
				<port id="0" precision="I64" names="84,90,96">
					<dim>4</dim>
				</port>
			</output>
		</layer>
		<layer id="55" name="__module.distilbert.transformer.layer.0.attention/aten::view/Reshape_1" type="Reshape" version="opset1">
			<data special_zero="false" />
			<input>
				<port id="0" precision="FP32">
					<dim>1</dim>
					<dim>-1</dim>
					<dim>768</dim>
				</port>
				<port id="1" precision="I64">
					<dim>4</dim>
				</port>
			</input>
			<output>
				<port id="2" precision="FP32" names="85">
					<dim>1</dim>
					<dim>-1</dim>
					<dim>12</dim>
					<dim>64</dim>
				</port>
			</output>
		</layer>
		<layer id="56" name="__module.distilbert.transformer.layer.0.attention/aten::transpose/ScatterElementsUpdate" type="Const" version="opset1">
			<data element_type="i32" shape="4" offset="24567624" size="16" />
			<output>
				<port id="0" precision="I32">
					<dim>4</dim>
				</port>
			</output>
		</layer>
		<layer id="57" name="__module.distilbert.transformer.layer.0.attention/aten::transpose/Transpose" type="Transpose" version="opset1">
			<input>
				<port id="0" precision="FP32">
					<dim>1</dim>
					<dim>-1</dim>
					<dim>12</dim>
					<dim>64</dim>
				</port>
				<port id="1" precision="I32">
					<dim>4</dim>
				</port>
			</input>
			<output>
				<port id="2" precision="FP32" names="86,q.1">
					<dim>1</dim>
					<dim>12</dim>
					<dim>-1</dim>
					<dim>64</dim>
				</port>
			</output>
		</layer>
		<layer id="58" name="Constant_6797" type="Const" version="opset1">
			<data element_type="f32" shape="1, 1, 1, 1" offset="24567640" size="4" />
			<output>
				<port id="0" precision="FP32">
					<dim>1</dim>
					<dim>1</dim>
					<dim>1</dim>
					<dim>1</dim>
				</port>
			</output>
		</layer>
		<layer id="59" name="__module.distilbert.transformer.layer.0.attention/aten::div/Divide" type="Divide" version="opset1">
			<data auto_broadcast="numpy" m_pythondiv="true" />
			<input>
				<port id="0" precision="FP32">
					<dim>1</dim>
					<dim>12</dim>
					<dim>-1</dim>
					<dim>64</dim>
				</port>
				<port id="1" precision="FP32">
					<dim>1</dim>
					<dim>1</dim>
					<dim>1</dim>
					<dim>1</dim>
				</port>
			</input>
			<output>
				<port id="2" precision="FP32" names="99">
					<dim>1</dim>
					<dim>12</dim>
					<dim>-1</dim>
					<dim>64</dim>
				</port>
			</output>
		</layer>
		<layer id="60" name="__module.distilbert.transformer.layer.0.attention/aten::div/Divide/fq_output_0/input_low" type="Const" version="opset1">
			<data element_type="f32" shape="" offset="24567644" size="4" />
			<output>
				<port id="0" precision="FP32" />
			</output>
		</layer>
		<layer id="61" name="__module.distilbert.transformer.layer.0.attention/aten::div/Divide/fq_output_0/input_high" type="Const" version="opset1">
			<data element_type="f32" shape="" offset="24567648" size="4" />
			<output>
				<port id="0" precision="FP32" />
			</output>
		</layer>
		<layer id="62" name="__module.distilbert.transformer.layer.0.attention/aten::div/Divide/fq_output_0/output_low" type="Const" version="opset1">
			<data element_type="f32" shape="" offset="24567644" size="4" />
			<output>
				<port id="0" precision="FP32" />
			</output>
		</layer>
		<layer id="63" name="__module.distilbert.transformer.layer.0.attention/aten::div/Divide/fq_output_0/output_high" type="Const" version="opset1">
			<data element_type="f32" shape="" offset="24567648" size="4" />
			<output>
				<port id="0" precision="FP32" />
			</output>
		</layer>
		<layer id="64" name="__module.distilbert.transformer.layer.0.attention/aten::div/Divide/fq_output_0" type="FakeQuantize" version="opset1">
			<data levels="256" auto_broadcast="numpy" />
			<input>
				<port id="0" precision="FP32">
					<dim>1</dim>
					<dim>12</dim>
					<dim>-1</dim>
					<dim>64</dim>
				</port>
				<port id="1" precision="FP32" />
				<port id="2" precision="FP32" />
				<port id="3" precision="FP32" />
				<port id="4" precision="FP32" />
			</input>
			<output>
				<port id="5" precision="FP32">
					<dim>1</dim>
					<dim>12</dim>
					<dim>-1</dim>
					<dim>64</dim>
				</port>
			</output>
		</layer>
		<layer id="65" name="Constant_207904" type="Const" version="opset1">
			<data element_type="i8" shape="768, 768" offset="24567652" size="589824" />
			<output>
				<port id="0" precision="I8">
					<dim>768</dim>
					<dim>768</dim>
				</port>
			</output>
		</layer>
		<layer id="66" name="Convert_207905" type="Convert" version="opset1">
			<data destination_type="f32" />
			<input>
				<port id="0" precision="I8">
					<dim>768</dim>
					<dim>768</dim>
				</port>
			</input>
			<output>
				<port id="1" precision="FP32">
					<dim>768</dim>
					<dim>768</dim>
				</port>
			</output>
		</layer>
		<layer id="67" name="Constant_207906" type="Const" version="opset1">
			<data element_type="f32" shape="768, 1" offset="25157476" size="3072" />
			<output>
				<port id="0" precision="FP32">
					<dim>768</dim>
					<dim>1</dim>
				</port>
			</output>
		</layer>
		<layer id="68" name="__module.distilbert.transformer.layer.0.attention.k_lin/aten::linear/MatMul/fq_weights_1" type="Multiply" version="opset1">
			<data auto_broadcast="numpy" />
			<input>
				<port id="0" precision="FP32">
					<dim>768</dim>
					<dim>768</dim>
				</port>
				<port id="1" precision="FP32">
					<dim>768</dim>
					<dim>1</dim>
				</port>
			</input>
			<output>
				<port id="2" precision="FP32">
					<dim>768</dim>
					<dim>768</dim>
				</port>
			</output>
		</layer>
		<layer id="69" name="__module.distilbert.transformer.layer.0.attention.k_lin/aten::linear/MatMul" type="MatMul" version="opset1">
			<data transpose_a="false" transpose_b="true" />
			<input>
				<port id="0" precision="FP32">
					<dim>1</dim>
					<dim>-1</dim>
					<dim>768</dim>
				</port>
				<port id="1" precision="FP32">
					<dim>768</dim>
					<dim>768</dim>
				</port>
			</input>
			<output>
				<port id="2" precision="FP32">
					<dim>1</dim>
					<dim>-1</dim>
					<dim>768</dim>
				</port>
			</output>
		</layer>
		<layer id="70" name="Constant_6798" type="Const" version="opset1">
			<data element_type="f32" shape="1, 1, 768" offset="25160548" size="3072" />
			<output>
				<port id="0" precision="FP32">
					<dim>1</dim>
					<dim>1</dim>
					<dim>768</dim>
				</port>
			</output>
		</layer>
		<layer id="71" name="__module.distilbert.transformer.layer.0.attention.k_lin/aten::linear/Add" type="Add" version="opset1">
			<data auto_broadcast="numpy" />
			<input>
				<port id="0" precision="FP32">
					<dim>1</dim>
					<dim>-1</dim>
					<dim>768</dim>
				</port>
				<port id="1" precision="FP32">
					<dim>1</dim>
					<dim>1</dim>
					<dim>768</dim>
				</port>
			</input>
			<output>
				<port id="2" precision="FP32" names="89,x.3">
					<dim>1</dim>
					<dim>-1</dim>
					<dim>768</dim>
				</port>
			</output>
		</layer>
		<layer id="72" name="__module.distilbert.transformer.layer.0.attention.k_lin/aten::linear/Add/fq_output_0/input_low" type="Const" version="opset1">
			<data element_type="f32" shape="" offset="25163620" size="4" />
			<output>
				<port id="0" precision="FP32" />
			</output>
		</layer>
		<layer id="73" name="__module.distilbert.transformer.layer.0.attention.k_lin/aten::linear/Add/fq_output_0/input_high" type="Const" version="opset1">
			<data element_type="f32" shape="" offset="25163624" size="4" />
			<output>
				<port id="0" precision="FP32" />
			</output>
		</layer>
		<layer id="74" name="__module.distilbert.transformer.layer.0.attention.k_lin/aten::linear/Add/fq_output_0/output_low" type="Const" version="opset1">
			<data element_type="f32" shape="" offset="25163620" size="4" />
			<output>
				<port id="0" precision="FP32" />
			</output>
		</layer>
		<layer id="75" name="__module.distilbert.transformer.layer.0.attention.k_lin/aten::linear/Add/fq_output_0/output_high" type="Const" version="opset1">
			<data element_type="f32" shape="" offset="25163624" size="4" />
			<output>
				<port id="0" precision="FP32" />
			</output>
		</layer>
		<layer id="76" name="__module.distilbert.transformer.layer.0.attention.k_lin/aten::linear/Add/fq_output_0" type="FakeQuantize" version="opset1">
			<data levels="256" auto_broadcast="numpy" />
			<input>
				<port id="0" precision="FP32">
					<dim>1</dim>
					<dim>-1</dim>
					<dim>768</dim>
				</port>
				<port id="1" precision="FP32" />
				<port id="2" precision="FP32" />
				<port id="3" precision="FP32" />
				<port id="4" precision="FP32" />
			</input>
			<output>
				<port id="5" precision="FP32">
					<dim>1</dim>
					<dim>-1</dim>
					<dim>768</dim>
				</port>
			</output>
		</layer>
		<layer id="77" name="__module.distilbert.transformer.layer.0.attention/aten::view/Reshape_2" type="Reshape" version="opset1">
			<data special_zero="false" />
			<input>
				<port id="0" precision="FP32">
					<dim>1</dim>
					<dim>-1</dim>
					<dim>768</dim>
				</port>
				<port id="1" precision="I64">
					<dim>4</dim>
				</port>
			</input>
			<output>
				<port id="2" precision="FP32" names="91">
					<dim>1</dim>
					<dim>-1</dim>
					<dim>12</dim>
					<dim>64</dim>
				</port>
			</output>
		</layer>
		<layer id="78" name="Constant_6505" type="Const" version="opset1">
			<data element_type="i32" shape="4" offset="25163628" size="16" />
			<output>
				<port id="0" precision="I32">
					<dim>4</dim>
				</port>
			</output>
		</layer>
		<layer id="79" name="__module.distilbert.transformer.layer.0.attention/aten::transpose/Transpose_2" type="Transpose" version="opset1">
			<input>
				<port id="0" precision="FP32">
					<dim>1</dim>
					<dim>-1</dim>
					<dim>12</dim>
					<dim>64</dim>
				</port>
				<port id="1" precision="I32">
					<dim>4</dim>
				</port>
			</input>
			<output>
				<port id="2" precision="FP32" names="100">
					<dim>1</dim>
					<dim>12</dim>
					<dim>64</dim>
					<dim>-1</dim>
				</port>
			</output>
		</layer>
		<layer id="80" name="__module.distilbert.transformer.layer.0.attention/aten::matmul/MatMul" type="MatMul" version="opset1">
			<data transpose_a="false" transpose_b="false" />
			<input>
				<port id="0" precision="FP32">
					<dim>1</dim>
					<dim>12</dim>
					<dim>-1</dim>
					<dim>64</dim>
				</port>
				<port id="1" precision="FP32">
					<dim>1</dim>
					<dim>12</dim>
					<dim>64</dim>
					<dim>-1</dim>
				</port>
			</input>
			<output>
				<port id="2" precision="FP32" names="101,scores.1">
					<dim>1</dim>
					<dim>12</dim>
					<dim>-1</dim>
					<dim>-1</dim>
				</port>
			</output>
		</layer>
		<layer id="81" name="__module.distilbert.transformer.layer.0.attention/aten::expand_as/ShapeOf" type="ShapeOf" version="opset3">
			<data output_type="i32" />
			<input>
				<port id="0" precision="FP32">
					<dim>1</dim>
					<dim>12</dim>
					<dim>-1</dim>
					<dim>-1</dim>
				</port>
			</input>
			<output>
				<port id="1" precision="I32">
					<dim>4</dim>
				</port>
			</output>
		</layer>
		<layer id="82" name="__module.distilbert.transformer.layer.0.attention/aten::expand_as/Broadcast" type="Broadcast" version="opset3">
			<data mode="bidirectional" />
			<input>
				<port id="0" precision="BOOL">
					<dim>1</dim>
					<dim>1</dim>
					<dim>1</dim>
					<dim>-1</dim>
				</port>
				<port id="1" precision="I32">
					<dim>4</dim>
				</port>
			</input>
			<output>
				<port id="2" precision="BOOL" names="105,mask.1">
					<dim>1</dim>
					<dim>12</dim>
					<dim>-1</dim>
					<dim>-1</dim>
				</port>
			</output>
		</layer>
		<layer id="83" name="__module.distilbert.transformer.layer.0.attention/aten::masked_fill/ConvertLike" type="Const" version="opset1">
			<data element_type="f32" shape="" offset="25163644" size="4" />
			<output>
				<port id="0" precision="FP32" />
			</output>
		</layer>
		<layer id="84" name="__module.distilbert.transformer.layer.0.attention/aten::masked_fill/Select" type="Select" version="opset1">
			<data auto_broadcast="numpy" />
			<input>
				<port id="0" precision="BOOL">
					<dim>1</dim>
					<dim>12</dim>
					<dim>-1</dim>
					<dim>-1</dim>
				</port>
				<port id="1" precision="FP32" />
				<port id="2" precision="FP32">
					<dim>1</dim>
					<dim>12</dim>
					<dim>-1</dim>
					<dim>-1</dim>
				</port>
			</input>
			<output>
				<port id="3" precision="FP32" names="108,input.3">
					<dim>1</dim>
					<dim>12</dim>
					<dim>-1</dim>
					<dim>-1</dim>
				</port>
			</output>
		</layer>
		<layer id="85" name="__module.distilbert.transformer.layer.0.attention/aten::softmax/Softmax" type="SoftMax" version="opset8">
			<data axis="-1" />
			<input>
				<port id="0" precision="FP32">
					<dim>1</dim>
					<dim>12</dim>
					<dim>-1</dim>
					<dim>-1</dim>
				</port>
			</input>
			<output>
				<port id="1" precision="FP32" names="109,input.5">
					<dim>1</dim>
					<dim>12</dim>
					<dim>-1</dim>
					<dim>-1</dim>
				</port>
			</output>
		</layer>
		<layer id="86" name="Constant_207908" type="Const" version="opset1">
			<data element_type="i8" shape="768, 768" offset="25163648" size="589824" />
			<output>
				<port id="0" precision="I8">
					<dim>768</dim>
					<dim>768</dim>
				</port>
			</output>
		</layer>
		<layer id="87" name="Convert_207909" type="Convert" version="opset1">
			<data destination_type="f32" />
			<input>
				<port id="0" precision="I8">
					<dim>768</dim>
					<dim>768</dim>
				</port>
			</input>
			<output>
				<port id="1" precision="FP32">
					<dim>768</dim>
					<dim>768</dim>
				</port>
			</output>
		</layer>
		<layer id="88" name="Constant_207910" type="Const" version="opset1">
			<data element_type="f32" shape="768, 1" offset="25753472" size="3072" />
			<output>
				<port id="0" precision="FP32">
					<dim>768</dim>
					<dim>1</dim>
				</port>
			</output>
		</layer>
		<layer id="89" name="__module.distilbert.transformer.layer.0.attention.v_lin/aten::linear/MatMul/fq_weights_1" type="Multiply" version="opset1">
			<data auto_broadcast="numpy" />
			<input>
				<port id="0" precision="FP32">
					<dim>768</dim>
					<dim>768</dim>
				</port>
				<port id="1" precision="FP32">
					<dim>768</dim>
					<dim>1</dim>
				</port>
			</input>
			<output>
				<port id="2" precision="FP32">
					<dim>768</dim>
					<dim>768</dim>
				</port>
			</output>
		</layer>
		<layer id="90" name="__module.distilbert.transformer.layer.0.attention.v_lin/aten::linear/MatMul" type="MatMul" version="opset1">
			<data transpose_a="false" transpose_b="true" />
			<input>
				<port id="0" precision="FP32">
					<dim>1</dim>
					<dim>-1</dim>
					<dim>768</dim>
				</port>
				<port id="1" precision="FP32">
					<dim>768</dim>
					<dim>768</dim>
				</port>
			</input>
			<output>
				<port id="2" precision="FP32">
					<dim>1</dim>
					<dim>-1</dim>
					<dim>768</dim>
				</port>
			</output>
		</layer>
		<layer id="91" name="Constant_6799" type="Const" version="opset1">
			<data element_type="f32" shape="1, 1, 768" offset="25756544" size="3072" />
			<output>
				<port id="0" precision="FP32">
					<dim>1</dim>
					<dim>1</dim>
					<dim>768</dim>
				</port>
			</output>
		</layer>
		<layer id="92" name="__module.distilbert.transformer.layer.0.attention.v_lin/aten::linear/Add" type="Add" version="opset1">
			<data auto_broadcast="numpy" />
			<input>
				<port id="0" precision="FP32">
					<dim>1</dim>
					<dim>-1</dim>
					<dim>768</dim>
				</port>
				<port id="1" precision="FP32">
					<dim>1</dim>
					<dim>1</dim>
					<dim>768</dim>
				</port>
			</input>
			<output>
				<port id="2" precision="FP32" names="95,x.5">
					<dim>1</dim>
					<dim>-1</dim>
					<dim>768</dim>
				</port>
			</output>
		</layer>
		<layer id="93" name="__module.distilbert.transformer.layer.0.attention/aten::view/Reshape_3" type="Reshape" version="opset1">
			<data special_zero="false" />
			<input>
				<port id="0" precision="FP32">
					<dim>1</dim>
					<dim>-1</dim>
					<dim>768</dim>
				</port>
				<port id="1" precision="I64">
					<dim>4</dim>
				</port>
			</input>
			<output>
				<port id="2" precision="FP32" names="97">
					<dim>1</dim>
					<dim>-1</dim>
					<dim>12</dim>
					<dim>64</dim>
				</port>
			</output>
		</layer>
		<layer id="94" name="__module.distilbert.transformer.layer.0.attention/aten::transpose/ScatterElementsUpdate_3" type="Const" version="opset1">
			<data element_type="i32" shape="4" offset="24567624" size="16" />
			<output>
				<port id="0" precision="I32">
					<dim>4</dim>
				</port>
			</output>
		</layer>
		<layer id="95" name="__module.distilbert.transformer.layer.0.attention/aten::transpose/Transpose_3" type="Transpose" version="opset1">
			<input>
				<port id="0" precision="FP32">
					<dim>1</dim>
					<dim>-1</dim>
					<dim>12</dim>
					<dim>64</dim>
				</port>
				<port id="1" precision="I32">
					<dim>4</dim>
				</port>
			</input>
			<output>
				<port id="2" precision="FP32" names="98">
					<dim>1</dim>
					<dim>12</dim>
					<dim>-1</dim>
					<dim>64</dim>
				</port>
			</output>
		</layer>
		<layer id="96" name="__module.distilbert.transformer.layer.0.attention/aten::matmul/MatMul_1" type="MatMul" version="opset1">
			<data transpose_a="false" transpose_b="false" />
			<input>
				<port id="0" precision="FP32">
					<dim>1</dim>
					<dim>12</dim>
					<dim>-1</dim>
					<dim>-1</dim>
				</port>
				<port id="1" precision="FP32">
					<dim>1</dim>
					<dim>12</dim>
					<dim>-1</dim>
					<dim>64</dim>
				</port>
			</input>
			<output>
				<port id="2" precision="FP32" names="111,x.7">
					<dim>1</dim>
					<dim>12</dim>
					<dim>-1</dim>
					<dim>64</dim>
				</port>
			</output>
		</layer>
		<layer id="97" name="__module.distilbert.transformer.layer.0.attention/aten::transpose/ScatterElementsUpdate_4" type="Const" version="opset1">
			<data element_type="i32" shape="4" offset="24567624" size="16" />
			<output>
				<port id="0" precision="I32">
					<dim>4</dim>
				</port>
			</output>
		</layer>
		<layer id="98" name="__module.distilbert.transformer.layer.0.attention/aten::transpose/Transpose_4" type="Transpose" version="opset1">
			<input>
				<port id="0" precision="FP32">
					<dim>1</dim>
					<dim>12</dim>
					<dim>-1</dim>
					<dim>64</dim>
				</port>
				<port id="1" precision="I32">
					<dim>4</dim>
				</port>
			</input>
			<output>
				<port id="2" precision="FP32" names="112">
					<dim>1</dim>
					<dim>-1</dim>
					<dim>12</dim>
					<dim>64</dim>
				</port>
			</output>
		</layer>
		<layer id="99" name="__module.distilbert.transformer.layer.0.attention/prim::ListConstruct/Concat_4" type="Const" version="opset1">
			<data element_type="i64" shape="3" offset="25759616" size="24" />
			<output>
				<port id="0" precision="I64" names="114">
					<dim>3</dim>
				</port>
			</output>
		</layer>
		<layer id="100" name="__module.distilbert.transformer.layer.0.attention/aten::view/Reshape_4" type="Reshape" version="opset1">
			<data special_zero="false" />
			<input>
				<port id="0" precision="FP32">
					<dim>1</dim>
					<dim>-1</dim>
					<dim>12</dim>
					<dim>64</dim>
				</port>
				<port id="1" precision="I64">
					<dim>3</dim>
				</port>
			</input>
			<output>
				<port id="2" precision="FP32" names="115">
					<dim>1</dim>
					<dim>-1</dim>
					<dim>768</dim>
				</port>
			</output>
		</layer>
		<layer id="101" name="__module.distilbert.transformer.layer.0.attention/aten::view/Reshape_4_0_0/nncf_smooth_quant/scale" type="Const" version="opset1">
			<data element_type="f32" shape="1, 1, 768" offset="25759640" size="3072" />
			<output>
				<port id="0" precision="FP32">
					<dim>1</dim>
					<dim>1</dim>
					<dim>768</dim>
				</port>
			</output>
		</layer>
		<layer id="102" name="__module.distilbert.transformer.layer.0.attention/aten::view/Reshape_4_0_0/nncf_smooth_quant" type="Multiply" version="opset1">
			<data auto_broadcast="numpy" />
			<input>
				<port id="0" precision="FP32">
					<dim>1</dim>
					<dim>-1</dim>
					<dim>768</dim>
				</port>
				<port id="1" precision="FP32">
					<dim>1</dim>
					<dim>1</dim>
					<dim>768</dim>
				</port>
			</input>
			<output>
				<port id="2" precision="FP32">
					<dim>1</dim>
					<dim>-1</dim>
					<dim>768</dim>
				</port>
			</output>
		</layer>
		<layer id="103" name="__module.distilbert.transformer.layer.0.attention/aten::view/Reshape_4_0_0/nncf_smooth_quant/fq_output_0/input_low" type="Const" version="opset1">
			<data element_type="f32" shape="" offset="25762712" size="4" />
			<output>
				<port id="0" precision="FP32" />
			</output>
		</layer>
		<layer id="104" name="__module.distilbert.transformer.layer.0.attention/aten::view/Reshape_4_0_0/nncf_smooth_quant/fq_output_0/input_high" type="Const" version="opset1">
			<data element_type="f32" shape="" offset="25762716" size="4" />
			<output>
				<port id="0" precision="FP32" />
			</output>
		</layer>
		<layer id="105" name="__module.distilbert.transformer.layer.0.attention/aten::view/Reshape_4_0_0/nncf_smooth_quant/fq_output_0/output_low" type="Const" version="opset1">
			<data element_type="f32" shape="" offset="25762712" size="4" />
			<output>
				<port id="0" precision="FP32" />
			</output>
		</layer>
		<layer id="106" name="__module.distilbert.transformer.layer.0.attention/aten::view/Reshape_4_0_0/nncf_smooth_quant/fq_output_0/output_high" type="Const" version="opset1">
			<data element_type="f32" shape="" offset="25762716" size="4" />
			<output>
				<port id="0" precision="FP32" />
			</output>
		</layer>
		<layer id="107" name="__module.distilbert.transformer.layer.0.attention/aten::view/Reshape_4_0_0/nncf_smooth_quant/fq_output_0" type="FakeQuantize" version="opset1">
			<data levels="256" auto_broadcast="numpy" />
			<input>
				<port id="0" precision="FP32">
					<dim>1</dim>
					<dim>-1</dim>
					<dim>768</dim>
				</port>
				<port id="1" precision="FP32" />
				<port id="2" precision="FP32" />
				<port id="3" precision="FP32" />
				<port id="4" precision="FP32" />
			</input>
			<output>
				<port id="5" precision="FP32">
					<dim>1</dim>
					<dim>-1</dim>
					<dim>768</dim>
				</port>
			</output>
		</layer>
		<layer id="108" name="Constant_207912" type="Const" version="opset1">
			<data element_type="i8" shape="768, 768" offset="25762720" size="589824" />
			<output>
				<port id="0" precision="I8">
					<dim>768</dim>
					<dim>768</dim>
				</port>
			</output>
		</layer>
		<layer id="109" name="Convert_207913" type="Convert" version="opset1">
			<data destination_type="f32" />
			<input>
				<port id="0" precision="I8">
					<dim>768</dim>
					<dim>768</dim>
				</port>
			</input>
			<output>
				<port id="1" precision="FP32">
					<dim>768</dim>
					<dim>768</dim>
				</port>
			</output>
		</layer>
		<layer id="110" name="Constant_207914" type="Const" version="opset1">
			<data element_type="f32" shape="768, 1" offset="26352544" size="3072" />
			<output>
				<port id="0" precision="FP32">
					<dim>768</dim>
					<dim>1</dim>
				</port>
			</output>
		</layer>
		<layer id="111" name="__module.distilbert.transformer.layer.0.attention.out_lin/aten::linear/MatMul/fq_weights_1" type="Multiply" version="opset1">
			<data auto_broadcast="numpy" />
			<input>
				<port id="0" precision="FP32">
					<dim>768</dim>
					<dim>768</dim>
				</port>
				<port id="1" precision="FP32">
					<dim>768</dim>
					<dim>1</dim>
				</port>
			</input>
			<output>
				<port id="2" precision="FP32">
					<dim>768</dim>
					<dim>768</dim>
				</port>
			</output>
		</layer>
		<layer id="112" name="__module.distilbert.transformer.layer.0.attention.out_lin/aten::linear/MatMul" type="MatMul" version="opset1">
			<data transpose_a="false" transpose_b="true" />
			<input>
				<port id="0" precision="FP32">
					<dim>1</dim>
					<dim>-1</dim>
					<dim>768</dim>
				</port>
				<port id="1" precision="FP32">
					<dim>768</dim>
					<dim>768</dim>
				</port>
			</input>
			<output>
				<port id="2" precision="FP32">
					<dim>1</dim>
					<dim>-1</dim>
					<dim>768</dim>
				</port>
			</output>
		</layer>
		<layer id="113" name="Constant_6800" type="Const" version="opset1">
			<data element_type="f32" shape="1, 1, 768" offset="26355616" size="3072" />
			<output>
				<port id="0" precision="FP32">
					<dim>1</dim>
					<dim>1</dim>
					<dim>768</dim>
				</port>
			</output>
		</layer>
		<layer id="114" name="__module.distilbert.transformer.layer.0.attention.out_lin/aten::linear/Add" type="Add" version="opset1">
			<data auto_broadcast="numpy" />
			<input>
				<port id="0" precision="FP32">
					<dim>1</dim>
					<dim>-1</dim>
					<dim>768</dim>
				</port>
				<port id="1" precision="FP32">
					<dim>1</dim>
					<dim>1</dim>
					<dim>768</dim>
				</port>
			</input>
			<output>
				<port id="2" precision="FP32" names="118,sa_output.1">
					<dim>1</dim>
					<dim>-1</dim>
					<dim>768</dim>
				</port>
			</output>
		</layer>
		<layer id="115" name="__module.distilbert.transformer.layer.0/aten::add/Add" type="Add" version="opset1">
			<data auto_broadcast="numpy" />
			<input>
				<port id="0" precision="FP32">
					<dim>1</dim>
					<dim>-1</dim>
					<dim>768</dim>
				</port>
				<port id="1" precision="FP32">
					<dim>1</dim>
					<dim>-1</dim>
					<dim>768</dim>
				</port>
			</input>
			<output>
				<port id="2" precision="FP32" names="119">
					<dim>1</dim>
					<dim>-1</dim>
					<dim>768</dim>
				</port>
			</output>
		</layer>
		<layer id="116" name="__module.distilbert.transformer.layer.0.sa_layer_norm/aten::layer_norm/Multiply" type="Const" version="opset1">
			<data element_type="i32" shape="1" offset="23962396" size="4" />
			<output>
				<port id="0" precision="I32">
					<dim>1</dim>
				</port>
			</output>
		</layer>
		<layer id="117" name="__module.distilbert.transformer.layer.0.sa_layer_norm/aten::layer_norm/MVN" type="MVN" version="opset6">
			<data eps="9.999999960041972e-13" normalize_variance="true" eps_mode="INSIDE_SQRT" />
			<input>
				<port id="0" precision="FP32">
					<dim>1</dim>
					<dim>-1</dim>
					<dim>768</dim>
				</port>
				<port id="1" precision="I32">
					<dim>1</dim>
				</port>
			</input>
			<output>
				<port id="2" precision="FP32">
					<dim>1</dim>
					<dim>-1</dim>
					<dim>768</dim>
				</port>
			</output>
		</layer>
		<layer id="118" name="Constant_6801" type="Const" version="opset1">
			<data element_type="f32" shape="1, 1, 768" offset="26358688" size="3072" />
			<output>
				<port id="0" precision="FP32">
					<dim>1</dim>
					<dim>1</dim>
					<dim>768</dim>
				</port>
			</output>
		</layer>
		<layer id="119" name="__module.distilbert.transformer.layer.0.sa_layer_norm/aten::layer_norm/Multiply_1" type="Multiply" version="opset1">
			<data auto_broadcast="numpy" />
			<input>
				<port id="0" precision="FP32">
					<dim>1</dim>
					<dim>-1</dim>
					<dim>768</dim>
				</port>
				<port id="1" precision="FP32">
					<dim>1</dim>
					<dim>1</dim>
					<dim>768</dim>
				</port>
			</input>
			<output>
				<port id="2" precision="FP32">
					<dim>1</dim>
					<dim>-1</dim>
					<dim>768</dim>
				</port>
			</output>
		</layer>
		<layer id="120" name="Constant_6802" type="Const" version="opset1">
			<data element_type="f32" shape="1, 1, 768" offset="26361760" size="3072" />
			<output>
				<port id="0" precision="FP32">
					<dim>1</dim>
					<dim>1</dim>
					<dim>768</dim>
				</port>
			</output>
		</layer>
		<layer id="121" name="__module.distilbert.transformer.layer.0.sa_layer_norm/aten::layer_norm/Add" type="Add" version="opset1">
			<data auto_broadcast="numpy" />
			<input>
				<port id="0" precision="FP32">
					<dim>1</dim>
					<dim>-1</dim>
					<dim>768</dim>
				</port>
				<port id="1" precision="FP32">
					<dim>1</dim>
					<dim>1</dim>
					<dim>768</dim>
				</port>
			</input>
			<output>
				<port id="2" precision="FP32" names="123,sa_output.3">
					<dim>1</dim>
					<dim>-1</dim>
					<dim>768</dim>
				</port>
			</output>
		</layer>
		<layer id="122" name="__module.distilbert.transformer.layer.0.sa_layer_norm/aten::layer_norm/Add_0_0/nncf_smooth_quant/scale" type="Const" version="opset1">
			<data element_type="f32" shape="1, 1, 768" offset="26364832" size="3072" />
			<output>
				<port id="0" precision="FP32">
					<dim>1</dim>
					<dim>1</dim>
					<dim>768</dim>
				</port>
			</output>
		</layer>
		<layer id="123" name="__module.distilbert.transformer.layer.0.sa_layer_norm/aten::layer_norm/Add_0_0/nncf_smooth_quant" type="Multiply" version="opset1">
			<data auto_broadcast="numpy" />
			<input>
				<port id="0" precision="FP32">
					<dim>1</dim>
					<dim>-1</dim>
					<dim>768</dim>
				</port>
				<port id="1" precision="FP32">
					<dim>1</dim>
					<dim>1</dim>
					<dim>768</dim>
				</port>
			</input>
			<output>
				<port id="2" precision="FP32">
					<dim>1</dim>
					<dim>-1</dim>
					<dim>768</dim>
				</port>
			</output>
		</layer>
		<layer id="124" name="__module.distilbert.transformer.layer.0.sa_layer_norm/aten::layer_norm/Add_0_0/nncf_smooth_quant/fq_output_0/input_low" type="Const" version="opset1">
			<data element_type="f32" shape="" offset="26367904" size="4" />
			<output>
				<port id="0" precision="FP32" />
			</output>
		</layer>
		<layer id="125" name="__module.distilbert.transformer.layer.0.sa_layer_norm/aten::layer_norm/Add_0_0/nncf_smooth_quant/fq_output_0/input_high" type="Const" version="opset1">
			<data element_type="f32" shape="" offset="26367908" size="4" />
			<output>
				<port id="0" precision="FP32" />
			</output>
		</layer>
		<layer id="126" name="__module.distilbert.transformer.layer.0.sa_layer_norm/aten::layer_norm/Add_0_0/nncf_smooth_quant/fq_output_0/output_low" type="Const" version="opset1">
			<data element_type="f32" shape="" offset="26367904" size="4" />
			<output>
				<port id="0" precision="FP32" />
			</output>
		</layer>
		<layer id="127" name="__module.distilbert.transformer.layer.0.sa_layer_norm/aten::layer_norm/Add_0_0/nncf_smooth_quant/fq_output_0/output_high" type="Const" version="opset1">
			<data element_type="f32" shape="" offset="26367908" size="4" />
			<output>
				<port id="0" precision="FP32" />
			</output>
		</layer>
		<layer id="128" name="__module.distilbert.transformer.layer.0.sa_layer_norm/aten::layer_norm/Add_0_0/nncf_smooth_quant/fq_output_0" type="FakeQuantize" version="opset1">
			<data levels="256" auto_broadcast="numpy" />
			<input>
				<port id="0" precision="FP32">
					<dim>1</dim>
					<dim>-1</dim>
					<dim>768</dim>
				</port>
				<port id="1" precision="FP32" />
				<port id="2" precision="FP32" />
				<port id="3" precision="FP32" />
				<port id="4" precision="FP32" />
			</input>
			<output>
				<port id="5" precision="FP32">
					<dim>1</dim>
					<dim>-1</dim>
					<dim>768</dim>
				</port>
			</output>
		</layer>
		<layer id="129" name="Constant_207916" type="Const" version="opset1">
			<data element_type="i8" shape="3072, 768" offset="26367912" size="2359296" />
			<output>
				<port id="0" precision="I8">
					<dim>3072</dim>
					<dim>768</dim>
				</port>
			</output>
		</layer>
		<layer id="130" name="Convert_207917" type="Convert" version="opset1">
			<data destination_type="f32" />
			<input>
				<port id="0" precision="I8">
					<dim>3072</dim>
					<dim>768</dim>
				</port>
			</input>
			<output>
				<port id="1" precision="FP32">
					<dim>3072</dim>
					<dim>768</dim>
				</port>
			</output>
		</layer>
		<layer id="131" name="Constant_207918" type="Const" version="opset1">
			<data element_type="f32" shape="3072, 1" offset="28727208" size="12288" />
			<output>
				<port id="0" precision="FP32">
					<dim>3072</dim>
					<dim>1</dim>
				</port>
			</output>
		</layer>
		<layer id="132" name="__module.distilbert.transformer.layer.0.ffn.lin1/aten::linear/MatMul/fq_weights_1" type="Multiply" version="opset1">
			<data auto_broadcast="numpy" />
			<input>
				<port id="0" precision="FP32">
					<dim>3072</dim>
					<dim>768</dim>
				</port>
				<port id="1" precision="FP32">
					<dim>3072</dim>
					<dim>1</dim>
				</port>
			</input>
			<output>
				<port id="2" precision="FP32">
					<dim>3072</dim>
					<dim>768</dim>
				</port>
			</output>
		</layer>
		<layer id="133" name="__module.distilbert.transformer.layer.0.ffn.lin1/aten::linear/MatMul" type="MatMul" version="opset1">
			<data transpose_a="false" transpose_b="true" />
			<input>
				<port id="0" precision="FP32">
					<dim>1</dim>
					<dim>-1</dim>
					<dim>768</dim>
				</port>
				<port id="1" precision="FP32">
					<dim>3072</dim>
					<dim>768</dim>
				</port>
			</input>
			<output>
				<port id="2" precision="FP32">
					<dim>1</dim>
					<dim>-1</dim>
					<dim>3072</dim>
				</port>
			</output>
		</layer>
		<layer id="134" name="Constant_6803" type="Const" version="opset1">
			<data element_type="f32" shape="1, 1, 3072" offset="28739496" size="12288" />
			<output>
				<port id="0" precision="FP32">
					<dim>1</dim>
					<dim>1</dim>
					<dim>3072</dim>
				</port>
			</output>
		</layer>
		<layer id="135" name="__module.distilbert.transformer.layer.0.ffn.lin1/aten::linear/Add" type="Add" version="opset1">
			<data auto_broadcast="numpy" />
			<input>
				<port id="0" precision="FP32">
					<dim>1</dim>
					<dim>-1</dim>
					<dim>3072</dim>
				</port>
				<port id="1" precision="FP32">
					<dim>1</dim>
					<dim>1</dim>
					<dim>3072</dim>
				</port>
			</input>
			<output>
				<port id="2" precision="FP32" names="130,input.7">
					<dim>1</dim>
					<dim>-1</dim>
					<dim>3072</dim>
				</port>
			</output>
		</layer>
		<layer id="136" name="__module.distilbert.transformer.layer.0.ffn.activation/aten::gelu/Gelu" type="Gelu" version="opset7">
			<data approximation_mode="ERF" />
			<input>
				<port id="0" precision="FP32">
					<dim>1</dim>
					<dim>-1</dim>
					<dim>3072</dim>
				</port>
			</input>
			<output>
				<port id="1" precision="FP32" names="131">
					<dim>1</dim>
					<dim>-1</dim>
					<dim>3072</dim>
				</port>
			</output>
		</layer>
		<layer id="137" name="__module.distilbert.transformer.layer.0.ffn.activation/aten::gelu/Gelu_0_0/nncf_smooth_quant/scale" type="Const" version="opset1">
			<data element_type="f32" shape="1, 1, 3072" offset="28751784" size="12288" />
			<output>
				<port id="0" precision="FP32">
					<dim>1</dim>
					<dim>1</dim>
					<dim>3072</dim>
				</port>
			</output>
		</layer>
		<layer id="138" name="__module.distilbert.transformer.layer.0.ffn.activation/aten::gelu/Gelu_0_0/nncf_smooth_quant" type="Multiply" version="opset1">
			<data auto_broadcast="numpy" />
			<input>
				<port id="0" precision="FP32">
					<dim>1</dim>
					<dim>-1</dim>
					<dim>3072</dim>
				</port>
				<port id="1" precision="FP32">
					<dim>1</dim>
					<dim>1</dim>
					<dim>3072</dim>
				</port>
			</input>
			<output>
				<port id="2" precision="FP32">
					<dim>1</dim>
					<dim>-1</dim>
					<dim>3072</dim>
				</port>
			</output>
		</layer>
		<layer id="139" name="__module.distilbert.transformer.layer.0.ffn.activation/aten::gelu/Gelu_0_0/nncf_smooth_quant/fq_output_0/input_low" type="Const" version="opset1">
			<data element_type="f32" shape="" offset="28764072" size="4" />
			<output>
				<port id="0" precision="FP32" />
			</output>
		</layer>
		<layer id="140" name="__module.distilbert.transformer.layer.0.ffn.activation/aten::gelu/Gelu_0_0/nncf_smooth_quant/fq_output_0/input_high" type="Const" version="opset1">
			<data element_type="f32" shape="" offset="28764076" size="4" />
			<output>
				<port id="0" precision="FP32" />
			</output>
		</layer>
		<layer id="141" name="__module.distilbert.transformer.layer.0.ffn.activation/aten::gelu/Gelu_0_0/nncf_smooth_quant/fq_output_0/output_low" type="Const" version="opset1">
			<data element_type="f32" shape="" offset="28764072" size="4" />
			<output>
				<port id="0" precision="FP32" />
			</output>
		</layer>
		<layer id="142" name="__module.distilbert.transformer.layer.0.ffn.activation/aten::gelu/Gelu_0_0/nncf_smooth_quant/fq_output_0/output_high" type="Const" version="opset1">
			<data element_type="f32" shape="" offset="28764076" size="4" />
			<output>
				<port id="0" precision="FP32" />
			</output>
		</layer>
		<layer id="143" name="__module.distilbert.transformer.layer.0.ffn.activation/aten::gelu/Gelu_0_0/nncf_smooth_quant/fq_output_0" type="FakeQuantize" version="opset1">
			<data levels="256" auto_broadcast="numpy" />
			<input>
				<port id="0" precision="FP32">
					<dim>1</dim>
					<dim>-1</dim>
					<dim>3072</dim>
				</port>
				<port id="1" precision="FP32" />
				<port id="2" precision="FP32" />
				<port id="3" precision="FP32" />
				<port id="4" precision="FP32" />
			</input>
			<output>
				<port id="5" precision="FP32">
					<dim>1</dim>
					<dim>-1</dim>
					<dim>3072</dim>
				</port>
			</output>
		</layer>
		<layer id="144" name="Constant_207920" type="Const" version="opset1">
			<data element_type="i8" shape="768, 3072" offset="28764080" size="2359296" />
			<output>
				<port id="0" precision="I8">
					<dim>768</dim>
					<dim>3072</dim>
				</port>
			</output>
		</layer>
		<layer id="145" name="Convert_207921" type="Convert" version="opset1">
			<data destination_type="f32" />
			<input>
				<port id="0" precision="I8">
					<dim>768</dim>
					<dim>3072</dim>
				</port>
			</input>
			<output>
				<port id="1" precision="FP32">
					<dim>768</dim>
					<dim>3072</dim>
				</port>
			</output>
		</layer>
		<layer id="146" name="Constant_207922" type="Const" version="opset1">
			<data element_type="f32" shape="768, 1" offset="31123376" size="3072" />
			<output>
				<port id="0" precision="FP32">
					<dim>768</dim>
					<dim>1</dim>
				</port>
			</output>
		</layer>
		<layer id="147" name="__module.distilbert.transformer.layer.0.ffn.lin2/aten::linear/MatMul/fq_weights_1" type="Multiply" version="opset1">
			<data auto_broadcast="numpy" />
			<input>
				<port id="0" precision="FP32">
					<dim>768</dim>
					<dim>3072</dim>
				</port>
				<port id="1" precision="FP32">
					<dim>768</dim>
					<dim>1</dim>
				</port>
			</input>
			<output>
				<port id="2" precision="FP32">
					<dim>768</dim>
					<dim>3072</dim>
				</port>
			</output>
		</layer>
		<layer id="148" name="__module.distilbert.transformer.layer.0.ffn.lin2/aten::linear/MatMul" type="MatMul" version="opset1">
			<data transpose_a="false" transpose_b="true" />
			<input>
				<port id="0" precision="FP32">
					<dim>1</dim>
					<dim>-1</dim>
					<dim>3072</dim>
				</port>
				<port id="1" precision="FP32">
					<dim>768</dim>
					<dim>3072</dim>
				</port>
			</input>
			<output>
				<port id="2" precision="FP32">
					<dim>1</dim>
					<dim>-1</dim>
					<dim>768</dim>
				</port>
			</output>
		</layer>
		<layer id="149" name="Constant_6804" type="Const" version="opset1">
			<data element_type="f32" shape="1, 1, 768" offset="31126448" size="3072" />
			<output>
				<port id="0" precision="FP32">
					<dim>1</dim>
					<dim>1</dim>
					<dim>768</dim>
				</port>
			</output>
		</layer>
		<layer id="150" name="__module.distilbert.transformer.layer.0.ffn.lin2/aten::linear/Add" type="Add" version="opset1">
			<data auto_broadcast="numpy" />
			<input>
				<port id="0" precision="FP32">
					<dim>1</dim>
					<dim>-1</dim>
					<dim>768</dim>
				</port>
				<port id="1" precision="FP32">
					<dim>1</dim>
					<dim>1</dim>
					<dim>768</dim>
				</port>
			</input>
			<output>
				<port id="2" precision="FP32" names="134,input.9">
					<dim>1</dim>
					<dim>-1</dim>
					<dim>768</dim>
				</port>
			</output>
		</layer>
		<layer id="151" name="__module.distilbert.transformer.layer.0/aten::add/Add_1" type="Add" version="opset1">
			<data auto_broadcast="numpy" />
			<input>
				<port id="0" precision="FP32">
					<dim>1</dim>
					<dim>-1</dim>
					<dim>768</dim>
				</port>
				<port id="1" precision="FP32">
					<dim>1</dim>
					<dim>-1</dim>
					<dim>768</dim>
				</port>
			</input>
			<output>
				<port id="2" precision="FP32" names="136">
					<dim>1</dim>
					<dim>-1</dim>
					<dim>768</dim>
				</port>
			</output>
		</layer>
		<layer id="152" name="__module.distilbert.transformer.layer.0.output_layer_norm/aten::layer_norm/Multiply" type="Const" version="opset1">
			<data element_type="i32" shape="1" offset="23962396" size="4" />
			<output>
				<port id="0" precision="I32">
					<dim>1</dim>
				</port>
			</output>
		</layer>
		<layer id="153" name="__module.distilbert.transformer.layer.0.output_layer_norm/aten::layer_norm/MVN" type="MVN" version="opset6">
			<data eps="9.999999960041972e-13" normalize_variance="true" eps_mode="INSIDE_SQRT" />
			<input>
				<port id="0" precision="FP32">
					<dim>1</dim>
					<dim>-1</dim>
					<dim>768</dim>
				</port>
				<port id="1" precision="I32">
					<dim>1</dim>
				</port>
			</input>
			<output>
				<port id="2" precision="FP32">
					<dim>1</dim>
					<dim>-1</dim>
					<dim>768</dim>
				</port>
			</output>
		</layer>
		<layer id="154" name="Constant_6805" type="Const" version="opset1">
			<data element_type="f32" shape="1, 1, 768" offset="31129520" size="3072" />
			<output>
				<port id="0" precision="FP32">
					<dim>1</dim>
					<dim>1</dim>
					<dim>768</dim>
				</port>
			</output>
		</layer>
		<layer id="155" name="__module.distilbert.transformer.layer.0.output_layer_norm/aten::layer_norm/Multiply_1" type="Multiply" version="opset1">
			<data auto_broadcast="numpy" />
			<input>
				<port id="0" precision="FP32">
					<dim>1</dim>
					<dim>-1</dim>
					<dim>768</dim>
				</port>
				<port id="1" precision="FP32">
					<dim>1</dim>
					<dim>1</dim>
					<dim>768</dim>
				</port>
			</input>
			<output>
				<port id="2" precision="FP32">
					<dim>1</dim>
					<dim>-1</dim>
					<dim>768</dim>
				</port>
			</output>
		</layer>
		<layer id="156" name="Constant_6806" type="Const" version="opset1">
			<data element_type="f32" shape="1, 1, 768" offset="31132592" size="3072" />
			<output>
				<port id="0" precision="FP32">
					<dim>1</dim>
					<dim>1</dim>
					<dim>768</dim>
				</port>
			</output>
		</layer>
		<layer id="157" name="__module.distilbert.transformer.layer.0.output_layer_norm/aten::layer_norm/Add" type="Add" version="opset1">
			<data auto_broadcast="numpy" />
			<input>
				<port id="0" precision="FP32">
					<dim>1</dim>
					<dim>-1</dim>
					<dim>768</dim>
				</port>
				<port id="1" precision="FP32">
					<dim>1</dim>
					<dim>1</dim>
					<dim>768</dim>
				</port>
			</input>
			<output>
				<port id="2" precision="FP32" names="140,query.3">
					<dim>1</dim>
					<dim>-1</dim>
					<dim>768</dim>
				</port>
			</output>
		</layer>
		<layer id="158" name="ShapeOf_6982" type="ShapeOf" version="opset3">
			<data output_type="i64" />
			<input>
				<port id="0" precision="FP32">
					<dim>1</dim>
					<dim>-1</dim>
					<dim>768</dim>
				</port>
			</input>
			<output>
				<port id="1" precision="I64">
					<dim>3</dim>
				</port>
			</output>
		</layer>
		<layer id="159" name="Constant_6983" type="Const" version="opset1">
			<data element_type="i64" shape="1" offset="8" size="8" />
			<output>
				<port id="0" precision="I64">
					<dim>1</dim>
				</port>
			</output>
		</layer>
		<layer id="160" name="Constant_6984" type="Const" version="opset1">
			<data element_type="i64" shape="" offset="0" size="8" />
			<output>
				<port id="0" precision="I64" />
			</output>
		</layer>
		<layer id="161" name="Gather_6985" type="Gather" version="opset8">
			<data batch_dims="0" />
			<input>
				<port id="0" precision="I64">
					<dim>3</dim>
				</port>
				<port id="1" precision="I64">
					<dim>1</dim>
				</port>
				<port id="2" precision="I64" />
			</input>
			<output>
				<port id="3" precision="I64" names="150,220,290,360,430">
					<dim>1</dim>
				</port>
			</output>
		</layer>
		<layer id="162" name="__module.distilbert.transformer.layer.1.attention/prim::ListConstruct/Concat" type="Concat" version="opset1">
			<data axis="0" />
			<input>
				<port id="0" precision="I64">
					<dim>1</dim>
				</port>
				<port id="1" precision="I64">
					<dim>1</dim>
				</port>
				<port id="2" precision="I64">
					<dim>1</dim>
				</port>
				<port id="3" precision="I64">
					<dim>1</dim>
				</port>
			</input>
			<output>
				<port id="4" precision="I64" names="173,243,313,383,453">
					<dim>4</dim>
				</port>
			</output>
		</layer>
		<layer id="163" name="__module.distilbert.transformer.layer.1.attention/aten::view/Reshape" type="Reshape" version="opset1">
			<data special_zero="false" />
			<input>
				<port id="0" precision="BOOL">
					<dim>1</dim>
					<dim>-1</dim>
				</port>
				<port id="1" precision="I64">
					<dim>4</dim>
				</port>
			</input>
			<output>
				<port id="2" precision="BOOL" names="174,244,314,384,454">
					<dim>1</dim>
					<dim>1</dim>
					<dim>1</dim>
					<dim>-1</dim>
				</port>
			</output>
		</layer>
		<layer id="164" name="__module.distilbert.transformer.layer.0.output_layer_norm/aten::layer_norm/Add_0_0/nncf_smooth_quant/scale" type="Const" version="opset1">
			<data element_type="f32" shape="1, 1, 768" offset="31135664" size="3072" />
			<output>
				<port id="0" precision="FP32">
					<dim>1</dim>
					<dim>1</dim>
					<dim>768</dim>
				</port>
			</output>
		</layer>
		<layer id="165" name="__module.distilbert.transformer.layer.0.output_layer_norm/aten::layer_norm/Add_0_0/nncf_smooth_quant" type="Multiply" version="opset1">
			<data auto_broadcast="numpy" />
			<input>
				<port id="0" precision="FP32">
					<dim>1</dim>
					<dim>-1</dim>
					<dim>768</dim>
				</port>
				<port id="1" precision="FP32">
					<dim>1</dim>
					<dim>1</dim>
					<dim>768</dim>
				</port>
			</input>
			<output>
				<port id="2" precision="FP32">
					<dim>1</dim>
					<dim>-1</dim>
					<dim>768</dim>
				</port>
			</output>
		</layer>
		<layer id="166" name="__module.distilbert.transformer.layer.0.output_layer_norm/aten::layer_norm/Add_0_0/nncf_smooth_quant/fq_output_0/input_low" type="Const" version="opset1">
			<data element_type="f32" shape="" offset="31138736" size="4" />
			<output>
				<port id="0" precision="FP32" />
			</output>
		</layer>
		<layer id="167" name="__module.distilbert.transformer.layer.0.output_layer_norm/aten::layer_norm/Add_0_0/nncf_smooth_quant/fq_output_0/input_high" type="Const" version="opset1">
			<data element_type="f32" shape="" offset="31138740" size="4" />
			<output>
				<port id="0" precision="FP32" />
			</output>
		</layer>
		<layer id="168" name="__module.distilbert.transformer.layer.0.output_layer_norm/aten::layer_norm/Add_0_0/nncf_smooth_quant/fq_output_0/output_low" type="Const" version="opset1">
			<data element_type="f32" shape="" offset="31138736" size="4" />
			<output>
				<port id="0" precision="FP32" />
			</output>
		</layer>
		<layer id="169" name="__module.distilbert.transformer.layer.0.output_layer_norm/aten::layer_norm/Add_0_0/nncf_smooth_quant/fq_output_0/output_high" type="Const" version="opset1">
			<data element_type="f32" shape="" offset="31138740" size="4" />
			<output>
				<port id="0" precision="FP32" />
			</output>
		</layer>
		<layer id="170" name="__module.distilbert.transformer.layer.0.output_layer_norm/aten::layer_norm/Add_0_0/nncf_smooth_quant/fq_output_0" type="FakeQuantize" version="opset1">
			<data levels="256" auto_broadcast="numpy" />
			<input>
				<port id="0" precision="FP32">
					<dim>1</dim>
					<dim>-1</dim>
					<dim>768</dim>
				</port>
				<port id="1" precision="FP32" />
				<port id="2" precision="FP32" />
				<port id="3" precision="FP32" />
				<port id="4" precision="FP32" />
			</input>
			<output>
				<port id="5" precision="FP32">
					<dim>1</dim>
					<dim>-1</dim>
					<dim>768</dim>
				</port>
			</output>
		</layer>
		<layer id="171" name="Constant_207924" type="Const" version="opset1">
			<data element_type="i8" shape="768, 768" offset="31138744" size="589824" />
			<output>
				<port id="0" precision="I8">
					<dim>768</dim>
					<dim>768</dim>
				</port>
			</output>
		</layer>
		<layer id="172" name="Convert_207925" type="Convert" version="opset1">
			<data destination_type="f32" />
			<input>
				<port id="0" precision="I8">
					<dim>768</dim>
					<dim>768</dim>
				</port>
			</input>
			<output>
				<port id="1" precision="FP32">
					<dim>768</dim>
					<dim>768</dim>
				</port>
			</output>
		</layer>
		<layer id="173" name="Constant_207926" type="Const" version="opset1">
			<data element_type="f32" shape="768, 1" offset="31728568" size="3072" />
			<output>
				<port id="0" precision="FP32">
					<dim>768</dim>
					<dim>1</dim>
				</port>
			</output>
		</layer>
		<layer id="174" name="__module.distilbert.transformer.layer.1.attention.q_lin/aten::linear/MatMul/fq_weights_1" type="Multiply" version="opset1">
			<data auto_broadcast="numpy" />
			<input>
				<port id="0" precision="FP32">
					<dim>768</dim>
					<dim>768</dim>
				</port>
				<port id="1" precision="FP32">
					<dim>768</dim>
					<dim>1</dim>
				</port>
			</input>
			<output>
				<port id="2" precision="FP32">
					<dim>768</dim>
					<dim>768</dim>
				</port>
			</output>
		</layer>
		<layer id="175" name="__module.distilbert.transformer.layer.1.attention.q_lin/aten::linear/MatMul" type="MatMul" version="opset1">
			<data transpose_a="false" transpose_b="true" />
			<input>
				<port id="0" precision="FP32">
					<dim>1</dim>
					<dim>-1</dim>
					<dim>768</dim>
				</port>
				<port id="1" precision="FP32">
					<dim>768</dim>
					<dim>768</dim>
				</port>
			</input>
			<output>
				<port id="2" precision="FP32">
					<dim>1</dim>
					<dim>-1</dim>
					<dim>768</dim>
				</port>
			</output>
		</layer>
		<layer id="176" name="Constant_6807" type="Const" version="opset1">
			<data element_type="f32" shape="1, 1, 768" offset="31731640" size="3072" />
			<output>
				<port id="0" precision="FP32">
					<dim>1</dim>
					<dim>1</dim>
					<dim>768</dim>
				</port>
			</output>
		</layer>
		<layer id="177" name="__module.distilbert.transformer.layer.1.attention.q_lin/aten::linear/Add" type="Add" version="opset1">
			<data auto_broadcast="numpy" />
			<input>
				<port id="0" precision="FP32">
					<dim>1</dim>
					<dim>-1</dim>
					<dim>768</dim>
				</port>
				<port id="1" precision="FP32">
					<dim>1</dim>
					<dim>1</dim>
					<dim>768</dim>
				</port>
			</input>
			<output>
				<port id="2" precision="FP32" names="153,x.9">
					<dim>1</dim>
					<dim>-1</dim>
					<dim>768</dim>
				</port>
			</output>
		</layer>
		<layer id="178" name="Constant_6988" type="Const" version="opset1">
			<data element_type="i64" shape="4" offset="31734712" size="32" />
			<output>
				<port id="0" precision="I64">
					<dim>4</dim>
				</port>
			</output>
		</layer>
		<layer id="179" name="__module.distilbert.transformer.layer.1.attention/aten::view/Reshape_1" type="Reshape" version="opset1">
			<data special_zero="true" />
			<input>
				<port id="0" precision="FP32">
					<dim>1</dim>
					<dim>-1</dim>
					<dim>768</dim>
				</port>
				<port id="1" precision="I64">
					<dim>4</dim>
				</port>
			</input>
			<output>
				<port id="2" precision="FP32" names="155">
					<dim>1</dim>
					<dim>-1</dim>
					<dim>12</dim>
					<dim>64</dim>
				</port>
			</output>
		</layer>
		<layer id="180" name="__module.distilbert.transformer.layer.1.attention/aten::transpose/ScatterElementsUpdate" type="Const" version="opset1">
			<data element_type="i32" shape="4" offset="24567624" size="16" />
			<output>
				<port id="0" precision="I32">
					<dim>4</dim>
				</port>
			</output>
		</layer>
		<layer id="181" name="__module.distilbert.transformer.layer.1.attention/aten::transpose/Transpose" type="Transpose" version="opset1">
			<input>
				<port id="0" precision="FP32">
					<dim>1</dim>
					<dim>-1</dim>
					<dim>12</dim>
					<dim>64</dim>
				</port>
				<port id="1" precision="I32">
					<dim>4</dim>
				</port>
			</input>
			<output>
				<port id="2" precision="FP32" names="156,q.3">
					<dim>1</dim>
					<dim>12</dim>
					<dim>-1</dim>
					<dim>64</dim>
				</port>
			</output>
		</layer>
		<layer id="182" name="Constant_6808" type="Const" version="opset1">
			<data element_type="f32" shape="1, 1, 1, 1" offset="24567640" size="4" />
			<output>
				<port id="0" precision="FP32">
					<dim>1</dim>
					<dim>1</dim>
					<dim>1</dim>
					<dim>1</dim>
				</port>
			</output>
		</layer>
		<layer id="183" name="__module.distilbert.transformer.layer.1.attention/aten::div/Divide" type="Divide" version="opset1">
			<data auto_broadcast="numpy" m_pythondiv="true" />
			<input>
				<port id="0" precision="FP32">
					<dim>1</dim>
					<dim>12</dim>
					<dim>-1</dim>
					<dim>64</dim>
				</port>
				<port id="1" precision="FP32">
					<dim>1</dim>
					<dim>1</dim>
					<dim>1</dim>
					<dim>1</dim>
				</port>
			</input>
			<output>
				<port id="2" precision="FP32" names="169">
					<dim>1</dim>
					<dim>12</dim>
					<dim>-1</dim>
					<dim>64</dim>
				</port>
			</output>
		</layer>
		<layer id="184" name="__module.distilbert.transformer.layer.1.attention/aten::div/Divide/fq_output_0/input_low" type="Const" version="opset1">
			<data element_type="f32" shape="" offset="31734744" size="4" />
			<output>
				<port id="0" precision="FP32" />
			</output>
		</layer>
		<layer id="185" name="__module.distilbert.transformer.layer.1.attention/aten::div/Divide/fq_output_0/input_high" type="Const" version="opset1">
			<data element_type="f32" shape="" offset="31734748" size="4" />
			<output>
				<port id="0" precision="FP32" />
			</output>
		</layer>
		<layer id="186" name="__module.distilbert.transformer.layer.1.attention/aten::div/Divide/fq_output_0/output_low" type="Const" version="opset1">
			<data element_type="f32" shape="" offset="31734744" size="4" />
			<output>
				<port id="0" precision="FP32" />
			</output>
		</layer>
		<layer id="187" name="__module.distilbert.transformer.layer.1.attention/aten::div/Divide/fq_output_0/output_high" type="Const" version="opset1">
			<data element_type="f32" shape="" offset="31734748" size="4" />
			<output>
				<port id="0" precision="FP32" />
			</output>
		</layer>
		<layer id="188" name="__module.distilbert.transformer.layer.1.attention/aten::div/Divide/fq_output_0" type="FakeQuantize" version="opset1">
			<data levels="256" auto_broadcast="numpy" />
			<input>
				<port id="0" precision="FP32">
					<dim>1</dim>
					<dim>12</dim>
					<dim>-1</dim>
					<dim>64</dim>
				</port>
				<port id="1" precision="FP32" />
				<port id="2" precision="FP32" />
				<port id="3" precision="FP32" />
				<port id="4" precision="FP32" />
			</input>
			<output>
				<port id="5" precision="FP32">
					<dim>1</dim>
					<dim>12</dim>
					<dim>-1</dim>
					<dim>64</dim>
				</port>
			</output>
		</layer>
		<layer id="189" name="Constant_207928" type="Const" version="opset1">
			<data element_type="i8" shape="768, 768" offset="31734752" size="589824" />
			<output>
				<port id="0" precision="I8">
					<dim>768</dim>
					<dim>768</dim>
				</port>
			</output>
		</layer>
		<layer id="190" name="Convert_207929" type="Convert" version="opset1">
			<data destination_type="f32" />
			<input>
				<port id="0" precision="I8">
					<dim>768</dim>
					<dim>768</dim>
				</port>
			</input>
			<output>
				<port id="1" precision="FP32">
					<dim>768</dim>
					<dim>768</dim>
				</port>
			</output>
		</layer>
		<layer id="191" name="Constant_207930" type="Const" version="opset1">
			<data element_type="f32" shape="768, 1" offset="32324576" size="3072" />
			<output>
				<port id="0" precision="FP32">
					<dim>768</dim>
					<dim>1</dim>
				</port>
			</output>
		</layer>
		<layer id="192" name="__module.distilbert.transformer.layer.1.attention.k_lin/aten::linear/MatMul/fq_weights_1" type="Multiply" version="opset1">
			<data auto_broadcast="numpy" />
			<input>
				<port id="0" precision="FP32">
					<dim>768</dim>
					<dim>768</dim>
				</port>
				<port id="1" precision="FP32">
					<dim>768</dim>
					<dim>1</dim>
				</port>
			</input>
			<output>
				<port id="2" precision="FP32">
					<dim>768</dim>
					<dim>768</dim>
				</port>
			</output>
		</layer>
		<layer id="193" name="__module.distilbert.transformer.layer.1.attention.k_lin/aten::linear/MatMul" type="MatMul" version="opset1">
			<data transpose_a="false" transpose_b="true" />
			<input>
				<port id="0" precision="FP32">
					<dim>1</dim>
					<dim>-1</dim>
					<dim>768</dim>
				</port>
				<port id="1" precision="FP32">
					<dim>768</dim>
					<dim>768</dim>
				</port>
			</input>
			<output>
				<port id="2" precision="FP32">
					<dim>1</dim>
					<dim>-1</dim>
					<dim>768</dim>
				</port>
			</output>
		</layer>
		<layer id="194" name="Constant_6809" type="Const" version="opset1">
			<data element_type="f32" shape="1, 1, 768" offset="32327648" size="3072" />
			<output>
				<port id="0" precision="FP32">
					<dim>1</dim>
					<dim>1</dim>
					<dim>768</dim>
				</port>
			</output>
		</layer>
		<layer id="195" name="__module.distilbert.transformer.layer.1.attention.k_lin/aten::linear/Add" type="Add" version="opset1">
			<data auto_broadcast="numpy" />
			<input>
				<port id="0" precision="FP32">
					<dim>1</dim>
					<dim>-1</dim>
					<dim>768</dim>
				</port>
				<port id="1" precision="FP32">
					<dim>1</dim>
					<dim>1</dim>
					<dim>768</dim>
				</port>
			</input>
			<output>
				<port id="2" precision="FP32" names="159,x.11">
					<dim>1</dim>
					<dim>-1</dim>
					<dim>768</dim>
				</port>
			</output>
		</layer>
		<layer id="196" name="__module.distilbert.transformer.layer.1.attention.k_lin/aten::linear/Add/fq_output_0/input_low" type="Const" version="opset1">
			<data element_type="f32" shape="" offset="32330720" size="4" />
			<output>
				<port id="0" precision="FP32" />
			</output>
		</layer>
		<layer id="197" name="__module.distilbert.transformer.layer.1.attention.k_lin/aten::linear/Add/fq_output_0/input_high" type="Const" version="opset1">
			<data element_type="f32" shape="" offset="32330724" size="4" />
			<output>
				<port id="0" precision="FP32" />
			</output>
		</layer>
		<layer id="198" name="__module.distilbert.transformer.layer.1.attention.k_lin/aten::linear/Add/fq_output_0/output_low" type="Const" version="opset1">
			<data element_type="f32" shape="" offset="32330720" size="4" />
			<output>
				<port id="0" precision="FP32" />
			</output>
		</layer>
		<layer id="199" name="__module.distilbert.transformer.layer.1.attention.k_lin/aten::linear/Add/fq_output_0/output_high" type="Const" version="opset1">
			<data element_type="f32" shape="" offset="32330724" size="4" />
			<output>
				<port id="0" precision="FP32" />
			</output>
		</layer>
		<layer id="200" name="__module.distilbert.transformer.layer.1.attention.k_lin/aten::linear/Add/fq_output_0" type="FakeQuantize" version="opset1">
			<data levels="256" auto_broadcast="numpy" />
			<input>
				<port id="0" precision="FP32">
					<dim>1</dim>
					<dim>-1</dim>
					<dim>768</dim>
				</port>
				<port id="1" precision="FP32" />
				<port id="2" precision="FP32" />
				<port id="3" precision="FP32" />
				<port id="4" precision="FP32" />
			</input>
			<output>
				<port id="5" precision="FP32">
					<dim>1</dim>
					<dim>-1</dim>
					<dim>768</dim>
				</port>
			</output>
		</layer>
		<layer id="201" name="Constant_6989" type="Const" version="opset1">
			<data element_type="i64" shape="4" offset="31734712" size="32" />
			<output>
				<port id="0" precision="I64">
					<dim>4</dim>
				</port>
			</output>
		</layer>
		<layer id="202" name="__module.distilbert.transformer.layer.1.attention/aten::view/Reshape_2" type="Reshape" version="opset1">
			<data special_zero="true" />
			<input>
				<port id="0" precision="FP32">
					<dim>1</dim>
					<dim>-1</dim>
					<dim>768</dim>
				</port>
				<port id="1" precision="I64">
					<dim>4</dim>
				</port>
			</input>
			<output>
				<port id="2" precision="FP32" names="161">
					<dim>1</dim>
					<dim>-1</dim>
					<dim>12</dim>
					<dim>64</dim>
				</port>
			</output>
		</layer>
		<layer id="203" name="Constant_6507" type="Const" version="opset1">
			<data element_type="i32" shape="4" offset="25163628" size="16" />
			<output>
				<port id="0" precision="I32">
					<dim>4</dim>
				</port>
			</output>
		</layer>
		<layer id="204" name="__module.distilbert.transformer.layer.1.attention/aten::transpose/Transpose_2" type="Transpose" version="opset1">
			<input>
				<port id="0" precision="FP32">
					<dim>1</dim>
					<dim>-1</dim>
					<dim>12</dim>
					<dim>64</dim>
				</port>
				<port id="1" precision="I32">
					<dim>4</dim>
				</port>
			</input>
			<output>
				<port id="2" precision="FP32" names="170">
					<dim>1</dim>
					<dim>12</dim>
					<dim>64</dim>
					<dim>-1</dim>
				</port>
			</output>
		</layer>
		<layer id="205" name="__module.distilbert.transformer.layer.1.attention/aten::matmul/MatMul" type="MatMul" version="opset1">
			<data transpose_a="false" transpose_b="false" />
			<input>
				<port id="0" precision="FP32">
					<dim>1</dim>
					<dim>12</dim>
					<dim>-1</dim>
					<dim>64</dim>
				</port>
				<port id="1" precision="FP32">
					<dim>1</dim>
					<dim>12</dim>
					<dim>64</dim>
					<dim>-1</dim>
				</port>
			</input>
			<output>
				<port id="2" precision="FP32" names="171,scores.3">
					<dim>1</dim>
					<dim>12</dim>
					<dim>-1</dim>
					<dim>-1</dim>
				</port>
			</output>
		</layer>
		<layer id="206" name="__module.distilbert.transformer.layer.1.attention/aten::expand_as/ShapeOf" type="ShapeOf" version="opset3">
			<data output_type="i32" />
			<input>
				<port id="0" precision="FP32">
					<dim>1</dim>
					<dim>12</dim>
					<dim>-1</dim>
					<dim>-1</dim>
				</port>
			</input>
			<output>
				<port id="1" precision="I32">
					<dim>4</dim>
				</port>
			</output>
		</layer>
		<layer id="207" name="__module.distilbert.transformer.layer.1.attention/aten::expand_as/Broadcast" type="Broadcast" version="opset3">
			<data mode="bidirectional" />
			<input>
				<port id="0" precision="BOOL">
					<dim>1</dim>
					<dim>1</dim>
					<dim>1</dim>
					<dim>-1</dim>
				</port>
				<port id="1" precision="I32">
					<dim>4</dim>
				</port>
			</input>
			<output>
				<port id="2" precision="BOOL" names="175,mask.3">
					<dim>1</dim>
					<dim>12</dim>
					<dim>-1</dim>
					<dim>-1</dim>
				</port>
			</output>
		</layer>
		<layer id="208" name="__module.distilbert.transformer.layer.1.attention/aten::masked_fill/ConvertLike" type="Const" version="opset1">
			<data element_type="f32" shape="" offset="25163644" size="4" />
			<output>
				<port id="0" precision="FP32" />
			</output>
		</layer>
		<layer id="209" name="__module.distilbert.transformer.layer.1.attention/aten::masked_fill/Select" type="Select" version="opset1">
			<data auto_broadcast="numpy" />
			<input>
				<port id="0" precision="BOOL">
					<dim>1</dim>
					<dim>12</dim>
					<dim>-1</dim>
					<dim>-1</dim>
				</port>
				<port id="1" precision="FP32" />
				<port id="2" precision="FP32">
					<dim>1</dim>
					<dim>12</dim>
					<dim>-1</dim>
					<dim>-1</dim>
				</port>
			</input>
			<output>
				<port id="3" precision="FP32" names="178,input.11">
					<dim>1</dim>
					<dim>12</dim>
					<dim>-1</dim>
					<dim>-1</dim>
				</port>
			</output>
		</layer>
		<layer id="210" name="__module.distilbert.transformer.layer.1.attention/aten::softmax/Softmax" type="SoftMax" version="opset8">
			<data axis="-1" />
			<input>
				<port id="0" precision="FP32">
					<dim>1</dim>
					<dim>12</dim>
					<dim>-1</dim>
					<dim>-1</dim>
				</port>
			</input>
			<output>
				<port id="1" precision="FP32" names="179,input.13">
					<dim>1</dim>
					<dim>12</dim>
					<dim>-1</dim>
					<dim>-1</dim>
				</port>
			</output>
		</layer>
		<layer id="211" name="Constant_207932" type="Const" version="opset1">
			<data element_type="i8" shape="768, 768" offset="32330728" size="589824" />
			<output>
				<port id="0" precision="I8">
					<dim>768</dim>
					<dim>768</dim>
				</port>
			</output>
		</layer>
		<layer id="212" name="Convert_207933" type="Convert" version="opset1">
			<data destination_type="f32" />
			<input>
				<port id="0" precision="I8">
					<dim>768</dim>
					<dim>768</dim>
				</port>
			</input>
			<output>
				<port id="1" precision="FP32">
					<dim>768</dim>
					<dim>768</dim>
				</port>
			</output>
		</layer>
		<layer id="213" name="Constant_207934" type="Const" version="opset1">
			<data element_type="f32" shape="768, 1" offset="32920552" size="3072" />
			<output>
				<port id="0" precision="FP32">
					<dim>768</dim>
					<dim>1</dim>
				</port>
			</output>
		</layer>
		<layer id="214" name="__module.distilbert.transformer.layer.1.attention.v_lin/aten::linear/MatMul/fq_weights_1" type="Multiply" version="opset1">
			<data auto_broadcast="numpy" />
			<input>
				<port id="0" precision="FP32">
					<dim>768</dim>
					<dim>768</dim>
				</port>
				<port id="1" precision="FP32">
					<dim>768</dim>
					<dim>1</dim>
				</port>
			</input>
			<output>
				<port id="2" precision="FP32">
					<dim>768</dim>
					<dim>768</dim>
				</port>
			</output>
		</layer>
		<layer id="215" name="__module.distilbert.transformer.layer.1.attention.v_lin/aten::linear/MatMul" type="MatMul" version="opset1">
			<data transpose_a="false" transpose_b="true" />
			<input>
				<port id="0" precision="FP32">
					<dim>1</dim>
					<dim>-1</dim>
					<dim>768</dim>
				</port>
				<port id="1" precision="FP32">
					<dim>768</dim>
					<dim>768</dim>
				</port>
			</input>
			<output>
				<port id="2" precision="FP32">
					<dim>1</dim>
					<dim>-1</dim>
					<dim>768</dim>
				</port>
			</output>
		</layer>
		<layer id="216" name="Constant_6810" type="Const" version="opset1">
			<data element_type="f32" shape="1, 1, 768" offset="32923624" size="3072" />
			<output>
				<port id="0" precision="FP32">
					<dim>1</dim>
					<dim>1</dim>
					<dim>768</dim>
				</port>
			</output>
		</layer>
		<layer id="217" name="__module.distilbert.transformer.layer.1.attention.v_lin/aten::linear/Add" type="Add" version="opset1">
			<data auto_broadcast="numpy" />
			<input>
				<port id="0" precision="FP32">
					<dim>1</dim>
					<dim>-1</dim>
					<dim>768</dim>
				</port>
				<port id="1" precision="FP32">
					<dim>1</dim>
					<dim>1</dim>
					<dim>768</dim>
				</port>
			</input>
			<output>
				<port id="2" precision="FP32" names="165,x.13">
					<dim>1</dim>
					<dim>-1</dim>
					<dim>768</dim>
				</port>
			</output>
		</layer>
		<layer id="218" name="Constant_6990" type="Const" version="opset1">
			<data element_type="i64" shape="4" offset="31734712" size="32" />
			<output>
				<port id="0" precision="I64">
					<dim>4</dim>
				</port>
			</output>
		</layer>
		<layer id="219" name="__module.distilbert.transformer.layer.1.attention/aten::view/Reshape_3" type="Reshape" version="opset1">
			<data special_zero="true" />
			<input>
				<port id="0" precision="FP32">
					<dim>1</dim>
					<dim>-1</dim>
					<dim>768</dim>
				</port>
				<port id="1" precision="I64">
					<dim>4</dim>
				</port>
			</input>
			<output>
				<port id="2" precision="FP32" names="167">
					<dim>1</dim>
					<dim>-1</dim>
					<dim>12</dim>
					<dim>64</dim>
				</port>
			</output>
		</layer>
		<layer id="220" name="__module.distilbert.transformer.layer.1.attention/aten::transpose/ScatterElementsUpdate_3" type="Const" version="opset1">
			<data element_type="i32" shape="4" offset="24567624" size="16" />
			<output>
				<port id="0" precision="I32">
					<dim>4</dim>
				</port>
			</output>
		</layer>
		<layer id="221" name="__module.distilbert.transformer.layer.1.attention/aten::transpose/Transpose_3" type="Transpose" version="opset1">
			<input>
				<port id="0" precision="FP32">
					<dim>1</dim>
					<dim>-1</dim>
					<dim>12</dim>
					<dim>64</dim>
				</port>
				<port id="1" precision="I32">
					<dim>4</dim>
				</port>
			</input>
			<output>
				<port id="2" precision="FP32" names="168">
					<dim>1</dim>
					<dim>12</dim>
					<dim>-1</dim>
					<dim>64</dim>
				</port>
			</output>
		</layer>
		<layer id="222" name="__module.distilbert.transformer.layer.1.attention/aten::matmul/MatMul_1" type="MatMul" version="opset1">
			<data transpose_a="false" transpose_b="false" />
			<input>
				<port id="0" precision="FP32">
					<dim>1</dim>
					<dim>12</dim>
					<dim>-1</dim>
					<dim>-1</dim>
				</port>
				<port id="1" precision="FP32">
					<dim>1</dim>
					<dim>12</dim>
					<dim>-1</dim>
					<dim>64</dim>
				</port>
			</input>
			<output>
				<port id="2" precision="FP32" names="181,x.15">
					<dim>1</dim>
					<dim>12</dim>
					<dim>-1</dim>
					<dim>64</dim>
				</port>
			</output>
		</layer>
		<layer id="223" name="__module.distilbert.transformer.layer.1.attention/aten::transpose/ScatterElementsUpdate_4" type="Const" version="opset1">
			<data element_type="i32" shape="4" offset="24567624" size="16" />
			<output>
				<port id="0" precision="I32">
					<dim>4</dim>
				</port>
			</output>
		</layer>
		<layer id="224" name="__module.distilbert.transformer.layer.1.attention/aten::transpose/Transpose_4" type="Transpose" version="opset1">
			<input>
				<port id="0" precision="FP32">
					<dim>1</dim>
					<dim>12</dim>
					<dim>-1</dim>
					<dim>64</dim>
				</port>
				<port id="1" precision="I32">
					<dim>4</dim>
				</port>
			</input>
			<output>
				<port id="2" precision="FP32" names="182">
					<dim>1</dim>
					<dim>-1</dim>
					<dim>12</dim>
					<dim>64</dim>
				</port>
			</output>
		</layer>
		<layer id="225" name="Constant_6991" type="Const" version="opset1">
			<data element_type="i64" shape="3" offset="32926696" size="24" />
			<output>
				<port id="0" precision="I64">
					<dim>3</dim>
				</port>
			</output>
		</layer>
		<layer id="226" name="__module.distilbert.transformer.layer.1.attention/aten::view/Reshape_4" type="Reshape" version="opset1">
			<data special_zero="true" />
			<input>
				<port id="0" precision="FP32">
					<dim>1</dim>
					<dim>-1</dim>
					<dim>12</dim>
					<dim>64</dim>
				</port>
				<port id="1" precision="I64">
					<dim>3</dim>
				</port>
			</input>
			<output>
				<port id="2" precision="FP32" names="185">
					<dim>1</dim>
					<dim>-1</dim>
					<dim>768</dim>
				</port>
			</output>
		</layer>
		<layer id="227" name="__module.distilbert.transformer.layer.1.attention/aten::view/Reshape_4_0_0/nncf_smooth_quant/scale" type="Const" version="opset1">
			<data element_type="f32" shape="1, 1, 768" offset="32926720" size="3072" />
			<output>
				<port id="0" precision="FP32">
					<dim>1</dim>
					<dim>1</dim>
					<dim>768</dim>
				</port>
			</output>
		</layer>
		<layer id="228" name="__module.distilbert.transformer.layer.1.attention/aten::view/Reshape_4_0_0/nncf_smooth_quant" type="Multiply" version="opset1">
			<data auto_broadcast="numpy" />
			<input>
				<port id="0" precision="FP32">
					<dim>1</dim>
					<dim>-1</dim>
					<dim>768</dim>
				</port>
				<port id="1" precision="FP32">
					<dim>1</dim>
					<dim>1</dim>
					<dim>768</dim>
				</port>
			</input>
			<output>
				<port id="2" precision="FP32">
					<dim>1</dim>
					<dim>-1</dim>
					<dim>768</dim>
				</port>
			</output>
		</layer>
		<layer id="229" name="__module.distilbert.transformer.layer.1.attention/aten::view/Reshape_4_0_0/nncf_smooth_quant/fq_output_0/input_low" type="Const" version="opset1">
			<data element_type="f32" shape="" offset="32929792" size="4" />
			<output>
				<port id="0" precision="FP32" />
			</output>
		</layer>
		<layer id="230" name="__module.distilbert.transformer.layer.1.attention/aten::view/Reshape_4_0_0/nncf_smooth_quant/fq_output_0/input_high" type="Const" version="opset1">
			<data element_type="f32" shape="" offset="32929796" size="4" />
			<output>
				<port id="0" precision="FP32" />
			</output>
		</layer>
		<layer id="231" name="__module.distilbert.transformer.layer.1.attention/aten::view/Reshape_4_0_0/nncf_smooth_quant/fq_output_0/output_low" type="Const" version="opset1">
			<data element_type="f32" shape="" offset="32929792" size="4" />
			<output>
				<port id="0" precision="FP32" />
			</output>
		</layer>
		<layer id="232" name="__module.distilbert.transformer.layer.1.attention/aten::view/Reshape_4_0_0/nncf_smooth_quant/fq_output_0/output_high" type="Const" version="opset1">
			<data element_type="f32" shape="" offset="32929796" size="4" />
			<output>
				<port id="0" precision="FP32" />
			</output>
		</layer>
		<layer id="233" name="__module.distilbert.transformer.layer.1.attention/aten::view/Reshape_4_0_0/nncf_smooth_quant/fq_output_0" type="FakeQuantize" version="opset1">
			<data levels="256" auto_broadcast="numpy" />
			<input>
				<port id="0" precision="FP32">
					<dim>1</dim>
					<dim>-1</dim>
					<dim>768</dim>
				</port>
				<port id="1" precision="FP32" />
				<port id="2" precision="FP32" />
				<port id="3" precision="FP32" />
				<port id="4" precision="FP32" />
			</input>
			<output>
				<port id="5" precision="FP32">
					<dim>1</dim>
					<dim>-1</dim>
					<dim>768</dim>
				</port>
			</output>
		</layer>
		<layer id="234" name="Constant_207936" type="Const" version="opset1">
			<data element_type="i8" shape="768, 768" offset="32929800" size="589824" />
			<output>
				<port id="0" precision="I8">
					<dim>768</dim>
					<dim>768</dim>
				</port>
			</output>
		</layer>
		<layer id="235" name="Convert_207937" type="Convert" version="opset1">
			<data destination_type="f32" />
			<input>
				<port id="0" precision="I8">
					<dim>768</dim>
					<dim>768</dim>
				</port>
			</input>
			<output>
				<port id="1" precision="FP32">
					<dim>768</dim>
					<dim>768</dim>
				</port>
			</output>
		</layer>
		<layer id="236" name="Constant_207938" type="Const" version="opset1">
			<data element_type="f32" shape="768, 1" offset="33519624" size="3072" />
			<output>
				<port id="0" precision="FP32">
					<dim>768</dim>
					<dim>1</dim>
				</port>
			</output>
		</layer>
		<layer id="237" name="__module.distilbert.transformer.layer.1.attention.out_lin/aten::linear/MatMul/fq_weights_1" type="Multiply" version="opset1">
			<data auto_broadcast="numpy" />
			<input>
				<port id="0" precision="FP32">
					<dim>768</dim>
					<dim>768</dim>
				</port>
				<port id="1" precision="FP32">
					<dim>768</dim>
					<dim>1</dim>
				</port>
			</input>
			<output>
				<port id="2" precision="FP32">
					<dim>768</dim>
					<dim>768</dim>
				</port>
			</output>
		</layer>
		<layer id="238" name="__module.distilbert.transformer.layer.1.attention.out_lin/aten::linear/MatMul" type="MatMul" version="opset1">
			<data transpose_a="false" transpose_b="true" />
			<input>
				<port id="0" precision="FP32">
					<dim>1</dim>
					<dim>-1</dim>
					<dim>768</dim>
				</port>
				<port id="1" precision="FP32">
					<dim>768</dim>
					<dim>768</dim>
				</port>
			</input>
			<output>
				<port id="2" precision="FP32">
					<dim>1</dim>
					<dim>-1</dim>
					<dim>768</dim>
				</port>
			</output>
		</layer>
		<layer id="239" name="Constant_6811" type="Const" version="opset1">
			<data element_type="f32" shape="1, 1, 768" offset="33522696" size="3072" />
			<output>
				<port id="0" precision="FP32">
					<dim>1</dim>
					<dim>1</dim>
					<dim>768</dim>
				</port>
			</output>
		</layer>
		<layer id="240" name="__module.distilbert.transformer.layer.1.attention.out_lin/aten::linear/Add" type="Add" version="opset1">
			<data auto_broadcast="numpy" />
			<input>
				<port id="0" precision="FP32">
					<dim>1</dim>
					<dim>-1</dim>
					<dim>768</dim>
				</port>
				<port id="1" precision="FP32">
					<dim>1</dim>
					<dim>1</dim>
					<dim>768</dim>
				</port>
			</input>
			<output>
				<port id="2" precision="FP32" names="188,sa_output.5">
					<dim>1</dim>
					<dim>-1</dim>
					<dim>768</dim>
				</port>
			</output>
		</layer>
		<layer id="241" name="__module.distilbert.transformer.layer.1/aten::add/Add" type="Add" version="opset1">
			<data auto_broadcast="numpy" />
			<input>
				<port id="0" precision="FP32">
					<dim>1</dim>
					<dim>-1</dim>
					<dim>768</dim>
				</port>
				<port id="1" precision="FP32">
					<dim>1</dim>
					<dim>-1</dim>
					<dim>768</dim>
				</port>
			</input>
			<output>
				<port id="2" precision="FP32" names="189">
					<dim>1</dim>
					<dim>-1</dim>
					<dim>768</dim>
				</port>
			</output>
		</layer>
		<layer id="242" name="__module.distilbert.transformer.layer.1.sa_layer_norm/aten::layer_norm/Multiply" type="Const" version="opset1">
			<data element_type="i32" shape="1" offset="23962396" size="4" />
			<output>
				<port id="0" precision="I32">
					<dim>1</dim>
				</port>
			</output>
		</layer>
		<layer id="243" name="__module.distilbert.transformer.layer.1.sa_layer_norm/aten::layer_norm/MVN" type="MVN" version="opset6">
			<data eps="9.999999960041972e-13" normalize_variance="true" eps_mode="INSIDE_SQRT" />
			<input>
				<port id="0" precision="FP32">
					<dim>1</dim>
					<dim>-1</dim>
					<dim>768</dim>
				</port>
				<port id="1" precision="I32">
					<dim>1</dim>
				</port>
			</input>
			<output>
				<port id="2" precision="FP32">
					<dim>1</dim>
					<dim>-1</dim>
					<dim>768</dim>
				</port>
			</output>
		</layer>
		<layer id="244" name="Constant_6812" type="Const" version="opset1">
			<data element_type="f32" shape="1, 1, 768" offset="33525768" size="3072" />
			<output>
				<port id="0" precision="FP32">
					<dim>1</dim>
					<dim>1</dim>
					<dim>768</dim>
				</port>
			</output>
		</layer>
		<layer id="245" name="__module.distilbert.transformer.layer.1.sa_layer_norm/aten::layer_norm/Multiply_1" type="Multiply" version="opset1">
			<data auto_broadcast="numpy" />
			<input>
				<port id="0" precision="FP32">
					<dim>1</dim>
					<dim>-1</dim>
					<dim>768</dim>
				</port>
				<port id="1" precision="FP32">
					<dim>1</dim>
					<dim>1</dim>
					<dim>768</dim>
				</port>
			</input>
			<output>
				<port id="2" precision="FP32">
					<dim>1</dim>
					<dim>-1</dim>
					<dim>768</dim>
				</port>
			</output>
		</layer>
		<layer id="246" name="Constant_6813" type="Const" version="opset1">
			<data element_type="f32" shape="1, 1, 768" offset="33528840" size="3072" />
			<output>
				<port id="0" precision="FP32">
					<dim>1</dim>
					<dim>1</dim>
					<dim>768</dim>
				</port>
			</output>
		</layer>
		<layer id="247" name="__module.distilbert.transformer.layer.1.sa_layer_norm/aten::layer_norm/Add" type="Add" version="opset1">
			<data auto_broadcast="numpy" />
			<input>
				<port id="0" precision="FP32">
					<dim>1</dim>
					<dim>-1</dim>
					<dim>768</dim>
				</port>
				<port id="1" precision="FP32">
					<dim>1</dim>
					<dim>1</dim>
					<dim>768</dim>
				</port>
			</input>
			<output>
				<port id="2" precision="FP32" names="193,sa_output.7">
					<dim>1</dim>
					<dim>-1</dim>
					<dim>768</dim>
				</port>
			</output>
		</layer>
		<layer id="248" name="__module.distilbert.transformer.layer.1.sa_layer_norm/aten::layer_norm/Add_0_0/nncf_smooth_quant/scale" type="Const" version="opset1">
			<data element_type="f32" shape="1, 1, 768" offset="33531912" size="3072" />
			<output>
				<port id="0" precision="FP32">
					<dim>1</dim>
					<dim>1</dim>
					<dim>768</dim>
				</port>
			</output>
		</layer>
		<layer id="249" name="__module.distilbert.transformer.layer.1.sa_layer_norm/aten::layer_norm/Add_0_0/nncf_smooth_quant" type="Multiply" version="opset1">
			<data auto_broadcast="numpy" />
			<input>
				<port id="0" precision="FP32">
					<dim>1</dim>
					<dim>-1</dim>
					<dim>768</dim>
				</port>
				<port id="1" precision="FP32">
					<dim>1</dim>
					<dim>1</dim>
					<dim>768</dim>
				</port>
			</input>
			<output>
				<port id="2" precision="FP32">
					<dim>1</dim>
					<dim>-1</dim>
					<dim>768</dim>
				</port>
			</output>
		</layer>
		<layer id="250" name="__module.distilbert.transformer.layer.1.sa_layer_norm/aten::layer_norm/Add_0_0/nncf_smooth_quant/fq_output_0/input_low" type="Const" version="opset1">
			<data element_type="f32" shape="" offset="33534984" size="4" />
			<output>
				<port id="0" precision="FP32" />
			</output>
		</layer>
		<layer id="251" name="__module.distilbert.transformer.layer.1.sa_layer_norm/aten::layer_norm/Add_0_0/nncf_smooth_quant/fq_output_0/input_high" type="Const" version="opset1">
			<data element_type="f32" shape="" offset="33534988" size="4" />
			<output>
				<port id="0" precision="FP32" />
			</output>
		</layer>
		<layer id="252" name="__module.distilbert.transformer.layer.1.sa_layer_norm/aten::layer_norm/Add_0_0/nncf_smooth_quant/fq_output_0/output_low" type="Const" version="opset1">
			<data element_type="f32" shape="" offset="33534984" size="4" />
			<output>
				<port id="0" precision="FP32" />
			</output>
		</layer>
		<layer id="253" name="__module.distilbert.transformer.layer.1.sa_layer_norm/aten::layer_norm/Add_0_0/nncf_smooth_quant/fq_output_0/output_high" type="Const" version="opset1">
			<data element_type="f32" shape="" offset="33534988" size="4" />
			<output>
				<port id="0" precision="FP32" />
			</output>
		</layer>
		<layer id="254" name="__module.distilbert.transformer.layer.1.sa_layer_norm/aten::layer_norm/Add_0_0/nncf_smooth_quant/fq_output_0" type="FakeQuantize" version="opset1">
			<data levels="256" auto_broadcast="numpy" />
			<input>
				<port id="0" precision="FP32">
					<dim>1</dim>
					<dim>-1</dim>
					<dim>768</dim>
				</port>
				<port id="1" precision="FP32" />
				<port id="2" precision="FP32" />
				<port id="3" precision="FP32" />
				<port id="4" precision="FP32" />
			</input>
			<output>
				<port id="5" precision="FP32">
					<dim>1</dim>
					<dim>-1</dim>
					<dim>768</dim>
				</port>
			</output>
		</layer>
		<layer id="255" name="Constant_207940" type="Const" version="opset1">
			<data element_type="i8" shape="3072, 768" offset="33534992" size="2359296" />
			<output>
				<port id="0" precision="I8">
					<dim>3072</dim>
					<dim>768</dim>
				</port>
			</output>
		</layer>
		<layer id="256" name="Convert_207941" type="Convert" version="opset1">
			<data destination_type="f32" />
			<input>
				<port id="0" precision="I8">
					<dim>3072</dim>
					<dim>768</dim>
				</port>
			</input>
			<output>
				<port id="1" precision="FP32">
					<dim>3072</dim>
					<dim>768</dim>
				</port>
			</output>
		</layer>
		<layer id="257" name="Constant_207942" type="Const" version="opset1">
			<data element_type="f32" shape="3072, 1" offset="35894288" size="12288" />
			<output>
				<port id="0" precision="FP32">
					<dim>3072</dim>
					<dim>1</dim>
				</port>
			</output>
		</layer>
		<layer id="258" name="__module.distilbert.transformer.layer.1.ffn.lin1/aten::linear/MatMul/fq_weights_1" type="Multiply" version="opset1">
			<data auto_broadcast="numpy" />
			<input>
				<port id="0" precision="FP32">
					<dim>3072</dim>
					<dim>768</dim>
				</port>
				<port id="1" precision="FP32">
					<dim>3072</dim>
					<dim>1</dim>
				</port>
			</input>
			<output>
				<port id="2" precision="FP32">
					<dim>3072</dim>
					<dim>768</dim>
				</port>
			</output>
		</layer>
		<layer id="259" name="__module.distilbert.transformer.layer.1.ffn.lin1/aten::linear/MatMul" type="MatMul" version="opset1">
			<data transpose_a="false" transpose_b="true" />
			<input>
				<port id="0" precision="FP32">
					<dim>1</dim>
					<dim>-1</dim>
					<dim>768</dim>
				</port>
				<port id="1" precision="FP32">
					<dim>3072</dim>
					<dim>768</dim>
				</port>
			</input>
			<output>
				<port id="2" precision="FP32">
					<dim>1</dim>
					<dim>-1</dim>
					<dim>3072</dim>
				</port>
			</output>
		</layer>
		<layer id="260" name="Constant_6814" type="Const" version="opset1">
			<data element_type="f32" shape="1, 1, 3072" offset="35906576" size="12288" />
			<output>
				<port id="0" precision="FP32">
					<dim>1</dim>
					<dim>1</dim>
					<dim>3072</dim>
				</port>
			</output>
		</layer>
		<layer id="261" name="__module.distilbert.transformer.layer.1.ffn.lin1/aten::linear/Add" type="Add" version="opset1">
			<data auto_broadcast="numpy" />
			<input>
				<port id="0" precision="FP32">
					<dim>1</dim>
					<dim>-1</dim>
					<dim>3072</dim>
				</port>
				<port id="1" precision="FP32">
					<dim>1</dim>
					<dim>1</dim>
					<dim>3072</dim>
				</port>
			</input>
			<output>
				<port id="2" precision="FP32" names="200,input.15">
					<dim>1</dim>
					<dim>-1</dim>
					<dim>3072</dim>
				</port>
			</output>
		</layer>
		<layer id="262" name="__module.distilbert.transformer.layer.1.ffn.activation/aten::gelu/Gelu" type="Gelu" version="opset7">
			<data approximation_mode="ERF" />
			<input>
				<port id="0" precision="FP32">
					<dim>1</dim>
					<dim>-1</dim>
					<dim>3072</dim>
				</port>
			</input>
			<output>
				<port id="1" precision="FP32" names="201">
					<dim>1</dim>
					<dim>-1</dim>
					<dim>3072</dim>
				</port>
			</output>
		</layer>
		<layer id="263" name="__module.distilbert.transformer.layer.1.ffn.activation/aten::gelu/Gelu_0_0/nncf_smooth_quant/scale" type="Const" version="opset1">
			<data element_type="f32" shape="1, 1, 3072" offset="35918864" size="12288" />
			<output>
				<port id="0" precision="FP32">
					<dim>1</dim>
					<dim>1</dim>
					<dim>3072</dim>
				</port>
			</output>
		</layer>
		<layer id="264" name="__module.distilbert.transformer.layer.1.ffn.activation/aten::gelu/Gelu_0_0/nncf_smooth_quant" type="Multiply" version="opset1">
			<data auto_broadcast="numpy" />
			<input>
				<port id="0" precision="FP32">
					<dim>1</dim>
					<dim>-1</dim>
					<dim>3072</dim>
				</port>
				<port id="1" precision="FP32">
					<dim>1</dim>
					<dim>1</dim>
					<dim>3072</dim>
				</port>
			</input>
			<output>
				<port id="2" precision="FP32">
					<dim>1</dim>
					<dim>-1</dim>
					<dim>3072</dim>
				</port>
			</output>
		</layer>
		<layer id="265" name="__module.distilbert.transformer.layer.1.ffn.activation/aten::gelu/Gelu_0_0/nncf_smooth_quant/fq_output_0/input_low" type="Const" version="opset1">
			<data element_type="f32" shape="" offset="35931152" size="4" />
			<output>
				<port id="0" precision="FP32" />
			</output>
		</layer>
		<layer id="266" name="__module.distilbert.transformer.layer.1.ffn.activation/aten::gelu/Gelu_0_0/nncf_smooth_quant/fq_output_0/input_high" type="Const" version="opset1">
			<data element_type="f32" shape="" offset="35931156" size="4" />
			<output>
				<port id="0" precision="FP32" />
			</output>
		</layer>
		<layer id="267" name="__module.distilbert.transformer.layer.1.ffn.activation/aten::gelu/Gelu_0_0/nncf_smooth_quant/fq_output_0/output_low" type="Const" version="opset1">
			<data element_type="f32" shape="" offset="35931152" size="4" />
			<output>
				<port id="0" precision="FP32" />
			</output>
		</layer>
		<layer id="268" name="__module.distilbert.transformer.layer.1.ffn.activation/aten::gelu/Gelu_0_0/nncf_smooth_quant/fq_output_0/output_high" type="Const" version="opset1">
			<data element_type="f32" shape="" offset="35931156" size="4" />
			<output>
				<port id="0" precision="FP32" />
			</output>
		</layer>
		<layer id="269" name="__module.distilbert.transformer.layer.1.ffn.activation/aten::gelu/Gelu_0_0/nncf_smooth_quant/fq_output_0" type="FakeQuantize" version="opset1">
			<data levels="256" auto_broadcast="numpy" />
			<input>
				<port id="0" precision="FP32">
					<dim>1</dim>
					<dim>-1</dim>
					<dim>3072</dim>
				</port>
				<port id="1" precision="FP32" />
				<port id="2" precision="FP32" />
				<port id="3" precision="FP32" />
				<port id="4" precision="FP32" />
			</input>
			<output>
				<port id="5" precision="FP32">
					<dim>1</dim>
					<dim>-1</dim>
					<dim>3072</dim>
				</port>
			</output>
		</layer>
		<layer id="270" name="Constant_207944" type="Const" version="opset1">
			<data element_type="i8" shape="768, 3072" offset="35931160" size="2359296" />
			<output>
				<port id="0" precision="I8">
					<dim>768</dim>
					<dim>3072</dim>
				</port>
			</output>
		</layer>
		<layer id="271" name="Convert_207945" type="Convert" version="opset1">
			<data destination_type="f32" />
			<input>
				<port id="0" precision="I8">
					<dim>768</dim>
					<dim>3072</dim>
				</port>
			</input>
			<output>
				<port id="1" precision="FP32">
					<dim>768</dim>
					<dim>3072</dim>
				</port>
			</output>
		</layer>
		<layer id="272" name="Constant_207946" type="Const" version="opset1">
			<data element_type="f32" shape="768, 1" offset="38290456" size="3072" />
			<output>
				<port id="0" precision="FP32">
					<dim>768</dim>
					<dim>1</dim>
				</port>
			</output>
		</layer>
		<layer id="273" name="__module.distilbert.transformer.layer.1.ffn.lin2/aten::linear/MatMul/fq_weights_1" type="Multiply" version="opset1">
			<data auto_broadcast="numpy" />
			<input>
				<port id="0" precision="FP32">
					<dim>768</dim>
					<dim>3072</dim>
				</port>
				<port id="1" precision="FP32">
					<dim>768</dim>
					<dim>1</dim>
				</port>
			</input>
			<output>
				<port id="2" precision="FP32">
					<dim>768</dim>
					<dim>3072</dim>
				</port>
			</output>
		</layer>
		<layer id="274" name="__module.distilbert.transformer.layer.1.ffn.lin2/aten::linear/MatMul" type="MatMul" version="opset1">
			<data transpose_a="false" transpose_b="true" />
			<input>
				<port id="0" precision="FP32">
					<dim>1</dim>
					<dim>-1</dim>
					<dim>3072</dim>
				</port>
				<port id="1" precision="FP32">
					<dim>768</dim>
					<dim>3072</dim>
				</port>
			</input>
			<output>
				<port id="2" precision="FP32">
					<dim>1</dim>
					<dim>-1</dim>
					<dim>768</dim>
				</port>
			</output>
		</layer>
		<layer id="275" name="Constant_6815" type="Const" version="opset1">
			<data element_type="f32" shape="1, 1, 768" offset="38293528" size="3072" />
			<output>
				<port id="0" precision="FP32">
					<dim>1</dim>
					<dim>1</dim>
					<dim>768</dim>
				</port>
			</output>
		</layer>
		<layer id="276" name="__module.distilbert.transformer.layer.1.ffn.lin2/aten::linear/Add" type="Add" version="opset1">
			<data auto_broadcast="numpy" />
			<input>
				<port id="0" precision="FP32">
					<dim>1</dim>
					<dim>-1</dim>
					<dim>768</dim>
				</port>
				<port id="1" precision="FP32">
					<dim>1</dim>
					<dim>1</dim>
					<dim>768</dim>
				</port>
			</input>
			<output>
				<port id="2" precision="FP32" names="204,input.17">
					<dim>1</dim>
					<dim>-1</dim>
					<dim>768</dim>
				</port>
			</output>
		</layer>
		<layer id="277" name="__module.distilbert.transformer.layer.1/aten::add/Add_1" type="Add" version="opset1">
			<data auto_broadcast="numpy" />
			<input>
				<port id="0" precision="FP32">
					<dim>1</dim>
					<dim>-1</dim>
					<dim>768</dim>
				</port>
				<port id="1" precision="FP32">
					<dim>1</dim>
					<dim>-1</dim>
					<dim>768</dim>
				</port>
			</input>
			<output>
				<port id="2" precision="FP32" names="206">
					<dim>1</dim>
					<dim>-1</dim>
					<dim>768</dim>
				</port>
			</output>
		</layer>
		<layer id="278" name="__module.distilbert.transformer.layer.1.output_layer_norm/aten::layer_norm/Multiply" type="Const" version="opset1">
			<data element_type="i32" shape="1" offset="23962396" size="4" />
			<output>
				<port id="0" precision="I32">
					<dim>1</dim>
				</port>
			</output>
		</layer>
		<layer id="279" name="__module.distilbert.transformer.layer.1.output_layer_norm/aten::layer_norm/MVN" type="MVN" version="opset6">
			<data eps="9.999999960041972e-13" normalize_variance="true" eps_mode="INSIDE_SQRT" />
			<input>
				<port id="0" precision="FP32">
					<dim>1</dim>
					<dim>-1</dim>
					<dim>768</dim>
				</port>
				<port id="1" precision="I32">
					<dim>1</dim>
				</port>
			</input>
			<output>
				<port id="2" precision="FP32">
					<dim>1</dim>
					<dim>-1</dim>
					<dim>768</dim>
				</port>
			</output>
		</layer>
		<layer id="280" name="Constant_6816" type="Const" version="opset1">
			<data element_type="f32" shape="1, 1, 768" offset="38296600" size="3072" />
			<output>
				<port id="0" precision="FP32">
					<dim>1</dim>
					<dim>1</dim>
					<dim>768</dim>
				</port>
			</output>
		</layer>
		<layer id="281" name="__module.distilbert.transformer.layer.1.output_layer_norm/aten::layer_norm/Multiply_1" type="Multiply" version="opset1">
			<data auto_broadcast="numpy" />
			<input>
				<port id="0" precision="FP32">
					<dim>1</dim>
					<dim>-1</dim>
					<dim>768</dim>
				</port>
				<port id="1" precision="FP32">
					<dim>1</dim>
					<dim>1</dim>
					<dim>768</dim>
				</port>
			</input>
			<output>
				<port id="2" precision="FP32">
					<dim>1</dim>
					<dim>-1</dim>
					<dim>768</dim>
				</port>
			</output>
		</layer>
		<layer id="282" name="Constant_6817" type="Const" version="opset1">
			<data element_type="f32" shape="1, 1, 768" offset="38299672" size="3072" />
			<output>
				<port id="0" precision="FP32">
					<dim>1</dim>
					<dim>1</dim>
					<dim>768</dim>
				</port>
			</output>
		</layer>
		<layer id="283" name="__module.distilbert.transformer.layer.1.output_layer_norm/aten::layer_norm/Add" type="Add" version="opset1">
			<data auto_broadcast="numpy" />
			<input>
				<port id="0" precision="FP32">
					<dim>1</dim>
					<dim>-1</dim>
					<dim>768</dim>
				</port>
				<port id="1" precision="FP32">
					<dim>1</dim>
					<dim>1</dim>
					<dim>768</dim>
				</port>
			</input>
			<output>
				<port id="2" precision="FP32" names="210,query.5">
					<dim>1</dim>
					<dim>-1</dim>
					<dim>768</dim>
				</port>
			</output>
		</layer>
		<layer id="284" name="__module.distilbert.transformer.layer.1.output_layer_norm/aten::layer_norm/Add_0_0/nncf_smooth_quant/scale" type="Const" version="opset1">
			<data element_type="f32" shape="1, 1, 768" offset="38302744" size="3072" />
			<output>
				<port id="0" precision="FP32">
					<dim>1</dim>
					<dim>1</dim>
					<dim>768</dim>
				</port>
			</output>
		</layer>
		<layer id="285" name="__module.distilbert.transformer.layer.1.output_layer_norm/aten::layer_norm/Add_0_0/nncf_smooth_quant" type="Multiply" version="opset1">
			<data auto_broadcast="numpy" />
			<input>
				<port id="0" precision="FP32">
					<dim>1</dim>
					<dim>-1</dim>
					<dim>768</dim>
				</port>
				<port id="1" precision="FP32">
					<dim>1</dim>
					<dim>1</dim>
					<dim>768</dim>
				</port>
			</input>
			<output>
				<port id="2" precision="FP32">
					<dim>1</dim>
					<dim>-1</dim>
					<dim>768</dim>
				</port>
			</output>
		</layer>
		<layer id="286" name="__module.distilbert.transformer.layer.1.output_layer_norm/aten::layer_norm/Add_0_0/nncf_smooth_quant/fq_output_0/input_low" type="Const" version="opset1">
			<data element_type="f32" shape="" offset="38305816" size="4" />
			<output>
				<port id="0" precision="FP32" />
			</output>
		</layer>
		<layer id="287" name="__module.distilbert.transformer.layer.1.output_layer_norm/aten::layer_norm/Add_0_0/nncf_smooth_quant/fq_output_0/input_high" type="Const" version="opset1">
			<data element_type="f32" shape="" offset="38305820" size="4" />
			<output>
				<port id="0" precision="FP32" />
			</output>
		</layer>
		<layer id="288" name="__module.distilbert.transformer.layer.1.output_layer_norm/aten::layer_norm/Add_0_0/nncf_smooth_quant/fq_output_0/output_low" type="Const" version="opset1">
			<data element_type="f32" shape="" offset="38305816" size="4" />
			<output>
				<port id="0" precision="FP32" />
			</output>
		</layer>
		<layer id="289" name="__module.distilbert.transformer.layer.1.output_layer_norm/aten::layer_norm/Add_0_0/nncf_smooth_quant/fq_output_0/output_high" type="Const" version="opset1">
			<data element_type="f32" shape="" offset="38305820" size="4" />
			<output>
				<port id="0" precision="FP32" />
			</output>
		</layer>
		<layer id="290" name="__module.distilbert.transformer.layer.1.output_layer_norm/aten::layer_norm/Add_0_0/nncf_smooth_quant/fq_output_0" type="FakeQuantize" version="opset1">
			<data levels="256" auto_broadcast="numpy" />
			<input>
				<port id="0" precision="FP32">
					<dim>1</dim>
					<dim>-1</dim>
					<dim>768</dim>
				</port>
				<port id="1" precision="FP32" />
				<port id="2" precision="FP32" />
				<port id="3" precision="FP32" />
				<port id="4" precision="FP32" />
			</input>
			<output>
				<port id="5" precision="FP32">
					<dim>1</dim>
					<dim>-1</dim>
					<dim>768</dim>
				</port>
			</output>
		</layer>
		<layer id="291" name="Constant_207948" type="Const" version="opset1">
			<data element_type="i8" shape="768, 768" offset="38305824" size="589824" />
			<output>
				<port id="0" precision="I8">
					<dim>768</dim>
					<dim>768</dim>
				</port>
			</output>
		</layer>
		<layer id="292" name="Convert_207949" type="Convert" version="opset1">
			<data destination_type="f32" />
			<input>
				<port id="0" precision="I8">
					<dim>768</dim>
					<dim>768</dim>
				</port>
			</input>
			<output>
				<port id="1" precision="FP32">
					<dim>768</dim>
					<dim>768</dim>
				</port>
			</output>
		</layer>
		<layer id="293" name="Constant_207950" type="Const" version="opset1">
			<data element_type="f32" shape="768, 1" offset="38895648" size="3072" />
			<output>
				<port id="0" precision="FP32">
					<dim>768</dim>
					<dim>1</dim>
				</port>
			</output>
		</layer>
		<layer id="294" name="__module.distilbert.transformer.layer.2.attention.q_lin/aten::linear/MatMul/fq_weights_1" type="Multiply" version="opset1">
			<data auto_broadcast="numpy" />
			<input>
				<port id="0" precision="FP32">
					<dim>768</dim>
					<dim>768</dim>
				</port>
				<port id="1" precision="FP32">
					<dim>768</dim>
					<dim>1</dim>
				</port>
			</input>
			<output>
				<port id="2" precision="FP32">
					<dim>768</dim>
					<dim>768</dim>
				</port>
			</output>
		</layer>
		<layer id="295" name="__module.distilbert.transformer.layer.2.attention.q_lin/aten::linear/MatMul" type="MatMul" version="opset1">
			<data transpose_a="false" transpose_b="true" />
			<input>
				<port id="0" precision="FP32">
					<dim>1</dim>
					<dim>-1</dim>
					<dim>768</dim>
				</port>
				<port id="1" precision="FP32">
					<dim>768</dim>
					<dim>768</dim>
				</port>
			</input>
			<output>
				<port id="2" precision="FP32">
					<dim>1</dim>
					<dim>-1</dim>
					<dim>768</dim>
				</port>
			</output>
		</layer>
		<layer id="296" name="Constant_6818" type="Const" version="opset1">
			<data element_type="f32" shape="1, 1, 768" offset="38898720" size="3072" />
			<output>
				<port id="0" precision="FP32">
					<dim>1</dim>
					<dim>1</dim>
					<dim>768</dim>
				</port>
			</output>
		</layer>
		<layer id="297" name="__module.distilbert.transformer.layer.2.attention.q_lin/aten::linear/Add" type="Add" version="opset1">
			<data auto_broadcast="numpy" />
			<input>
				<port id="0" precision="FP32">
					<dim>1</dim>
					<dim>-1</dim>
					<dim>768</dim>
				</port>
				<port id="1" precision="FP32">
					<dim>1</dim>
					<dim>1</dim>
					<dim>768</dim>
				</port>
			</input>
			<output>
				<port id="2" precision="FP32" names="223,x.17">
					<dim>1</dim>
					<dim>-1</dim>
					<dim>768</dim>
				</port>
			</output>
		</layer>
		<layer id="298" name="Constant_6992" type="Const" version="opset1">
			<data element_type="i64" shape="4" offset="31734712" size="32" />
			<output>
				<port id="0" precision="I64">
					<dim>4</dim>
				</port>
			</output>
		</layer>
		<layer id="299" name="__module.distilbert.transformer.layer.2.attention/aten::view/Reshape_1" type="Reshape" version="opset1">
			<data special_zero="true" />
			<input>
				<port id="0" precision="FP32">
					<dim>1</dim>
					<dim>-1</dim>
					<dim>768</dim>
				</port>
				<port id="1" precision="I64">
					<dim>4</dim>
				</port>
			</input>
			<output>
				<port id="2" precision="FP32" names="225">
					<dim>1</dim>
					<dim>-1</dim>
					<dim>12</dim>
					<dim>64</dim>
				</port>
			</output>
		</layer>
		<layer id="300" name="__module.distilbert.transformer.layer.2.attention/aten::transpose/ScatterElementsUpdate" type="Const" version="opset1">
			<data element_type="i32" shape="4" offset="24567624" size="16" />
			<output>
				<port id="0" precision="I32">
					<dim>4</dim>
				</port>
			</output>
		</layer>
		<layer id="301" name="__module.distilbert.transformer.layer.2.attention/aten::transpose/Transpose" type="Transpose" version="opset1">
			<input>
				<port id="0" precision="FP32">
					<dim>1</dim>
					<dim>-1</dim>
					<dim>12</dim>
					<dim>64</dim>
				</port>
				<port id="1" precision="I32">
					<dim>4</dim>
				</port>
			</input>
			<output>
				<port id="2" precision="FP32" names="226,q.5">
					<dim>1</dim>
					<dim>12</dim>
					<dim>-1</dim>
					<dim>64</dim>
				</port>
			</output>
		</layer>
		<layer id="302" name="Constant_6819" type="Const" version="opset1">
			<data element_type="f32" shape="1, 1, 1, 1" offset="24567640" size="4" />
			<output>
				<port id="0" precision="FP32">
					<dim>1</dim>
					<dim>1</dim>
					<dim>1</dim>
					<dim>1</dim>
				</port>
			</output>
		</layer>
		<layer id="303" name="__module.distilbert.transformer.layer.2.attention/aten::div/Divide" type="Divide" version="opset1">
			<data auto_broadcast="numpy" m_pythondiv="true" />
			<input>
				<port id="0" precision="FP32">
					<dim>1</dim>
					<dim>12</dim>
					<dim>-1</dim>
					<dim>64</dim>
				</port>
				<port id="1" precision="FP32">
					<dim>1</dim>
					<dim>1</dim>
					<dim>1</dim>
					<dim>1</dim>
				</port>
			</input>
			<output>
				<port id="2" precision="FP32" names="239">
					<dim>1</dim>
					<dim>12</dim>
					<dim>-1</dim>
					<dim>64</dim>
				</port>
			</output>
		</layer>
		<layer id="304" name="__module.distilbert.transformer.layer.2.attention/aten::div/Divide/fq_output_0/input_low" type="Const" version="opset1">
			<data element_type="f32" shape="" offset="38901792" size="4" />
			<output>
				<port id="0" precision="FP32" />
			</output>
		</layer>
		<layer id="305" name="__module.distilbert.transformer.layer.2.attention/aten::div/Divide/fq_output_0/input_high" type="Const" version="opset1">
			<data element_type="f32" shape="" offset="38901796" size="4" />
			<output>
				<port id="0" precision="FP32" />
			</output>
		</layer>
		<layer id="306" name="__module.distilbert.transformer.layer.2.attention/aten::div/Divide/fq_output_0/output_low" type="Const" version="opset1">
			<data element_type="f32" shape="" offset="38901792" size="4" />
			<output>
				<port id="0" precision="FP32" />
			</output>
		</layer>
		<layer id="307" name="__module.distilbert.transformer.layer.2.attention/aten::div/Divide/fq_output_0/output_high" type="Const" version="opset1">
			<data element_type="f32" shape="" offset="38901796" size="4" />
			<output>
				<port id="0" precision="FP32" />
			</output>
		</layer>
		<layer id="308" name="__module.distilbert.transformer.layer.2.attention/aten::div/Divide/fq_output_0" type="FakeQuantize" version="opset1">
			<data levels="256" auto_broadcast="numpy" />
			<input>
				<port id="0" precision="FP32">
					<dim>1</dim>
					<dim>12</dim>
					<dim>-1</dim>
					<dim>64</dim>
				</port>
				<port id="1" precision="FP32" />
				<port id="2" precision="FP32" />
				<port id="3" precision="FP32" />
				<port id="4" precision="FP32" />
			</input>
			<output>
				<port id="5" precision="FP32">
					<dim>1</dim>
					<dim>12</dim>
					<dim>-1</dim>
					<dim>64</dim>
				</port>
			</output>
		</layer>
		<layer id="309" name="Constant_207952" type="Const" version="opset1">
			<data element_type="i8" shape="768, 768" offset="38901800" size="589824" />
			<output>
				<port id="0" precision="I8">
					<dim>768</dim>
					<dim>768</dim>
				</port>
			</output>
		</layer>
		<layer id="310" name="Convert_207953" type="Convert" version="opset1">
			<data destination_type="f32" />
			<input>
				<port id="0" precision="I8">
					<dim>768</dim>
					<dim>768</dim>
				</port>
			</input>
			<output>
				<port id="1" precision="FP32">
					<dim>768</dim>
					<dim>768</dim>
				</port>
			</output>
		</layer>
		<layer id="311" name="Constant_207954" type="Const" version="opset1">
			<data element_type="f32" shape="768, 1" offset="39491624" size="3072" />
			<output>
				<port id="0" precision="FP32">
					<dim>768</dim>
					<dim>1</dim>
				</port>
			</output>
		</layer>
		<layer id="312" name="__module.distilbert.transformer.layer.2.attention.k_lin/aten::linear/MatMul/fq_weights_1" type="Multiply" version="opset1">
			<data auto_broadcast="numpy" />
			<input>
				<port id="0" precision="FP32">
					<dim>768</dim>
					<dim>768</dim>
				</port>
				<port id="1" precision="FP32">
					<dim>768</dim>
					<dim>1</dim>
				</port>
			</input>
			<output>
				<port id="2" precision="FP32">
					<dim>768</dim>
					<dim>768</dim>
				</port>
			</output>
		</layer>
		<layer id="313" name="__module.distilbert.transformer.layer.2.attention.k_lin/aten::linear/MatMul" type="MatMul" version="opset1">
			<data transpose_a="false" transpose_b="true" />
			<input>
				<port id="0" precision="FP32">
					<dim>1</dim>
					<dim>-1</dim>
					<dim>768</dim>
				</port>
				<port id="1" precision="FP32">
					<dim>768</dim>
					<dim>768</dim>
				</port>
			</input>
			<output>
				<port id="2" precision="FP32">
					<dim>1</dim>
					<dim>-1</dim>
					<dim>768</dim>
				</port>
			</output>
		</layer>
		<layer id="314" name="Constant_6820" type="Const" version="opset1">
			<data element_type="f32" shape="1, 1, 768" offset="39494696" size="3072" />
			<output>
				<port id="0" precision="FP32">
					<dim>1</dim>
					<dim>1</dim>
					<dim>768</dim>
				</port>
			</output>
		</layer>
		<layer id="315" name="__module.distilbert.transformer.layer.2.attention.k_lin/aten::linear/Add" type="Add" version="opset1">
			<data auto_broadcast="numpy" />
			<input>
				<port id="0" precision="FP32">
					<dim>1</dim>
					<dim>-1</dim>
					<dim>768</dim>
				</port>
				<port id="1" precision="FP32">
					<dim>1</dim>
					<dim>1</dim>
					<dim>768</dim>
				</port>
			</input>
			<output>
				<port id="2" precision="FP32" names="229,x.19">
					<dim>1</dim>
					<dim>-1</dim>
					<dim>768</dim>
				</port>
			</output>
		</layer>
		<layer id="316" name="__module.distilbert.transformer.layer.2.attention.k_lin/aten::linear/Add/fq_output_0/input_low" type="Const" version="opset1">
			<data element_type="f32" shape="" offset="39497768" size="4" />
			<output>
				<port id="0" precision="FP32" />
			</output>
		</layer>
		<layer id="317" name="__module.distilbert.transformer.layer.2.attention.k_lin/aten::linear/Add/fq_output_0/input_high" type="Const" version="opset1">
			<data element_type="f32" shape="" offset="39497772" size="4" />
			<output>
				<port id="0" precision="FP32" />
			</output>
		</layer>
		<layer id="318" name="__module.distilbert.transformer.layer.2.attention.k_lin/aten::linear/Add/fq_output_0/output_low" type="Const" version="opset1">
			<data element_type="f32" shape="" offset="39497768" size="4" />
			<output>
				<port id="0" precision="FP32" />
			</output>
		</layer>
		<layer id="319" name="__module.distilbert.transformer.layer.2.attention.k_lin/aten::linear/Add/fq_output_0/output_high" type="Const" version="opset1">
			<data element_type="f32" shape="" offset="39497772" size="4" />
			<output>
				<port id="0" precision="FP32" />
			</output>
		</layer>
		<layer id="320" name="__module.distilbert.transformer.layer.2.attention.k_lin/aten::linear/Add/fq_output_0" type="FakeQuantize" version="opset1">
			<data levels="256" auto_broadcast="numpy" />
			<input>
				<port id="0" precision="FP32">
					<dim>1</dim>
					<dim>-1</dim>
					<dim>768</dim>
				</port>
				<port id="1" precision="FP32" />
				<port id="2" precision="FP32" />
				<port id="3" precision="FP32" />
				<port id="4" precision="FP32" />
			</input>
			<output>
				<port id="5" precision="FP32">
					<dim>1</dim>
					<dim>-1</dim>
					<dim>768</dim>
				</port>
			</output>
		</layer>
		<layer id="321" name="Constant_6993" type="Const" version="opset1">
			<data element_type="i64" shape="4" offset="31734712" size="32" />
			<output>
				<port id="0" precision="I64">
					<dim>4</dim>
				</port>
			</output>
		</layer>
		<layer id="322" name="__module.distilbert.transformer.layer.2.attention/aten::view/Reshape_2" type="Reshape" version="opset1">
			<data special_zero="true" />
			<input>
				<port id="0" precision="FP32">
					<dim>1</dim>
					<dim>-1</dim>
					<dim>768</dim>
				</port>
				<port id="1" precision="I64">
					<dim>4</dim>
				</port>
			</input>
			<output>
				<port id="2" precision="FP32" names="231">
					<dim>1</dim>
					<dim>-1</dim>
					<dim>12</dim>
					<dim>64</dim>
				</port>
			</output>
		</layer>
		<layer id="323" name="Constant_6509" type="Const" version="opset1">
			<data element_type="i32" shape="4" offset="25163628" size="16" />
			<output>
				<port id="0" precision="I32">
					<dim>4</dim>
				</port>
			</output>
		</layer>
		<layer id="324" name="__module.distilbert.transformer.layer.2.attention/aten::transpose/Transpose_2" type="Transpose" version="opset1">
			<input>
				<port id="0" precision="FP32">
					<dim>1</dim>
					<dim>-1</dim>
					<dim>12</dim>
					<dim>64</dim>
				</port>
				<port id="1" precision="I32">
					<dim>4</dim>
				</port>
			</input>
			<output>
				<port id="2" precision="FP32" names="240">
					<dim>1</dim>
					<dim>12</dim>
					<dim>64</dim>
					<dim>-1</dim>
				</port>
			</output>
		</layer>
		<layer id="325" name="__module.distilbert.transformer.layer.2.attention/aten::matmul/MatMul" type="MatMul" version="opset1">
			<data transpose_a="false" transpose_b="false" />
			<input>
				<port id="0" precision="FP32">
					<dim>1</dim>
					<dim>12</dim>
					<dim>-1</dim>
					<dim>64</dim>
				</port>
				<port id="1" precision="FP32">
					<dim>1</dim>
					<dim>12</dim>
					<dim>64</dim>
					<dim>-1</dim>
				</port>
			</input>
			<output>
				<port id="2" precision="FP32" names="241,scores.5">
					<dim>1</dim>
					<dim>12</dim>
					<dim>-1</dim>
					<dim>-1</dim>
				</port>
			</output>
		</layer>
		<layer id="326" name="__module.distilbert.transformer.layer.2.attention/aten::expand_as/ShapeOf" type="ShapeOf" version="opset3">
			<data output_type="i32" />
			<input>
				<port id="0" precision="FP32">
					<dim>1</dim>
					<dim>12</dim>
					<dim>-1</dim>
					<dim>-1</dim>
				</port>
			</input>
			<output>
				<port id="1" precision="I32">
					<dim>4</dim>
				</port>
			</output>
		</layer>
		<layer id="327" name="__module.distilbert.transformer.layer.2.attention/aten::expand_as/Broadcast" type="Broadcast" version="opset3">
			<data mode="bidirectional" />
			<input>
				<port id="0" precision="BOOL">
					<dim>1</dim>
					<dim>1</dim>
					<dim>1</dim>
					<dim>-1</dim>
				</port>
				<port id="1" precision="I32">
					<dim>4</dim>
				</port>
			</input>
			<output>
				<port id="2" precision="BOOL" names="245,mask.5">
					<dim>1</dim>
					<dim>12</dim>
					<dim>-1</dim>
					<dim>-1</dim>
				</port>
			</output>
		</layer>
		<layer id="328" name="__module.distilbert.transformer.layer.2.attention/aten::masked_fill/ConvertLike" type="Const" version="opset1">
			<data element_type="f32" shape="" offset="25163644" size="4" />
			<output>
				<port id="0" precision="FP32" />
			</output>
		</layer>
		<layer id="329" name="__module.distilbert.transformer.layer.2.attention/aten::masked_fill/Select" type="Select" version="opset1">
			<data auto_broadcast="numpy" />
			<input>
				<port id="0" precision="BOOL">
					<dim>1</dim>
					<dim>12</dim>
					<dim>-1</dim>
					<dim>-1</dim>
				</port>
				<port id="1" precision="FP32" />
				<port id="2" precision="FP32">
					<dim>1</dim>
					<dim>12</dim>
					<dim>-1</dim>
					<dim>-1</dim>
				</port>
			</input>
			<output>
				<port id="3" precision="FP32" names="248,input.19">
					<dim>1</dim>
					<dim>12</dim>
					<dim>-1</dim>
					<dim>-1</dim>
				</port>
			</output>
		</layer>
		<layer id="330" name="__module.distilbert.transformer.layer.2.attention/aten::softmax/Softmax" type="SoftMax" version="opset8">
			<data axis="-1" />
			<input>
				<port id="0" precision="FP32">
					<dim>1</dim>
					<dim>12</dim>
					<dim>-1</dim>
					<dim>-1</dim>
				</port>
			</input>
			<output>
				<port id="1" precision="FP32" names="249,input.21">
					<dim>1</dim>
					<dim>12</dim>
					<dim>-1</dim>
					<dim>-1</dim>
				</port>
			</output>
		</layer>
		<layer id="331" name="Constant_207956" type="Const" version="opset1">
			<data element_type="i8" shape="768, 768" offset="39497776" size="589824" />
			<output>
				<port id="0" precision="I8">
					<dim>768</dim>
					<dim>768</dim>
				</port>
			</output>
		</layer>
		<layer id="332" name="Convert_207957" type="Convert" version="opset1">
			<data destination_type="f32" />
			<input>
				<port id="0" precision="I8">
					<dim>768</dim>
					<dim>768</dim>
				</port>
			</input>
			<output>
				<port id="1" precision="FP32">
					<dim>768</dim>
					<dim>768</dim>
				</port>
			</output>
		</layer>
		<layer id="333" name="Constant_207958" type="Const" version="opset1">
			<data element_type="f32" shape="768, 1" offset="40087600" size="3072" />
			<output>
				<port id="0" precision="FP32">
					<dim>768</dim>
					<dim>1</dim>
				</port>
			</output>
		</layer>
		<layer id="334" name="__module.distilbert.transformer.layer.2.attention.v_lin/aten::linear/MatMul/fq_weights_1" type="Multiply" version="opset1">
			<data auto_broadcast="numpy" />
			<input>
				<port id="0" precision="FP32">
					<dim>768</dim>
					<dim>768</dim>
				</port>
				<port id="1" precision="FP32">
					<dim>768</dim>
					<dim>1</dim>
				</port>
			</input>
			<output>
				<port id="2" precision="FP32">
					<dim>768</dim>
					<dim>768</dim>
				</port>
			</output>
		</layer>
		<layer id="335" name="__module.distilbert.transformer.layer.2.attention.v_lin/aten::linear/MatMul" type="MatMul" version="opset1">
			<data transpose_a="false" transpose_b="true" />
			<input>
				<port id="0" precision="FP32">
					<dim>1</dim>
					<dim>-1</dim>
					<dim>768</dim>
				</port>
				<port id="1" precision="FP32">
					<dim>768</dim>
					<dim>768</dim>
				</port>
			</input>
			<output>
				<port id="2" precision="FP32">
					<dim>1</dim>
					<dim>-1</dim>
					<dim>768</dim>
				</port>
			</output>
		</layer>
		<layer id="336" name="Constant_6821" type="Const" version="opset1">
			<data element_type="f32" shape="1, 1, 768" offset="40090672" size="3072" />
			<output>
				<port id="0" precision="FP32">
					<dim>1</dim>
					<dim>1</dim>
					<dim>768</dim>
				</port>
			</output>
		</layer>
		<layer id="337" name="__module.distilbert.transformer.layer.2.attention.v_lin/aten::linear/Add" type="Add" version="opset1">
			<data auto_broadcast="numpy" />
			<input>
				<port id="0" precision="FP32">
					<dim>1</dim>
					<dim>-1</dim>
					<dim>768</dim>
				</port>
				<port id="1" precision="FP32">
					<dim>1</dim>
					<dim>1</dim>
					<dim>768</dim>
				</port>
			</input>
			<output>
				<port id="2" precision="FP32" names="235,x.21">
					<dim>1</dim>
					<dim>-1</dim>
					<dim>768</dim>
				</port>
			</output>
		</layer>
		<layer id="338" name="Constant_6994" type="Const" version="opset1">
			<data element_type="i64" shape="4" offset="31734712" size="32" />
			<output>
				<port id="0" precision="I64">
					<dim>4</dim>
				</port>
			</output>
		</layer>
		<layer id="339" name="__module.distilbert.transformer.layer.2.attention/aten::view/Reshape_3" type="Reshape" version="opset1">
			<data special_zero="true" />
			<input>
				<port id="0" precision="FP32">
					<dim>1</dim>
					<dim>-1</dim>
					<dim>768</dim>
				</port>
				<port id="1" precision="I64">
					<dim>4</dim>
				</port>
			</input>
			<output>
				<port id="2" precision="FP32" names="237">
					<dim>1</dim>
					<dim>-1</dim>
					<dim>12</dim>
					<dim>64</dim>
				</port>
			</output>
		</layer>
		<layer id="340" name="__module.distilbert.transformer.layer.2.attention/aten::transpose/ScatterElementsUpdate_3" type="Const" version="opset1">
			<data element_type="i32" shape="4" offset="24567624" size="16" />
			<output>
				<port id="0" precision="I32">
					<dim>4</dim>
				</port>
			</output>
		</layer>
		<layer id="341" name="__module.distilbert.transformer.layer.2.attention/aten::transpose/Transpose_3" type="Transpose" version="opset1">
			<input>
				<port id="0" precision="FP32">
					<dim>1</dim>
					<dim>-1</dim>
					<dim>12</dim>
					<dim>64</dim>
				</port>
				<port id="1" precision="I32">
					<dim>4</dim>
				</port>
			</input>
			<output>
				<port id="2" precision="FP32" names="238">
					<dim>1</dim>
					<dim>12</dim>
					<dim>-1</dim>
					<dim>64</dim>
				</port>
			</output>
		</layer>
		<layer id="342" name="__module.distilbert.transformer.layer.2.attention/aten::matmul/MatMul_1" type="MatMul" version="opset1">
			<data transpose_a="false" transpose_b="false" />
			<input>
				<port id="0" precision="FP32">
					<dim>1</dim>
					<dim>12</dim>
					<dim>-1</dim>
					<dim>-1</dim>
				</port>
				<port id="1" precision="FP32">
					<dim>1</dim>
					<dim>12</dim>
					<dim>-1</dim>
					<dim>64</dim>
				</port>
			</input>
			<output>
				<port id="2" precision="FP32" names="251,x.23">
					<dim>1</dim>
					<dim>12</dim>
					<dim>-1</dim>
					<dim>64</dim>
				</port>
			</output>
		</layer>
		<layer id="343" name="__module.distilbert.transformer.layer.2.attention/aten::transpose/ScatterElementsUpdate_4" type="Const" version="opset1">
			<data element_type="i32" shape="4" offset="24567624" size="16" />
			<output>
				<port id="0" precision="I32">
					<dim>4</dim>
				</port>
			</output>
		</layer>
		<layer id="344" name="__module.distilbert.transformer.layer.2.attention/aten::transpose/Transpose_4" type="Transpose" version="opset1">
			<input>
				<port id="0" precision="FP32">
					<dim>1</dim>
					<dim>12</dim>
					<dim>-1</dim>
					<dim>64</dim>
				</port>
				<port id="1" precision="I32">
					<dim>4</dim>
				</port>
			</input>
			<output>
				<port id="2" precision="FP32" names="252">
					<dim>1</dim>
					<dim>-1</dim>
					<dim>12</dim>
					<dim>64</dim>
				</port>
			</output>
		</layer>
		<layer id="345" name="Constant_6995" type="Const" version="opset1">
			<data element_type="i64" shape="3" offset="32926696" size="24" />
			<output>
				<port id="0" precision="I64">
					<dim>3</dim>
				</port>
			</output>
		</layer>
		<layer id="346" name="__module.distilbert.transformer.layer.2.attention/aten::view/Reshape_4" type="Reshape" version="opset1">
			<data special_zero="true" />
			<input>
				<port id="0" precision="FP32">
					<dim>1</dim>
					<dim>-1</dim>
					<dim>12</dim>
					<dim>64</dim>
				</port>
				<port id="1" precision="I64">
					<dim>3</dim>
				</port>
			</input>
			<output>
				<port id="2" precision="FP32" names="255">
					<dim>1</dim>
					<dim>-1</dim>
					<dim>768</dim>
				</port>
			</output>
		</layer>
		<layer id="347" name="__module.distilbert.transformer.layer.2.attention/aten::view/Reshape_4_0_0/nncf_smooth_quant/scale" type="Const" version="opset1">
			<data element_type="f32" shape="1, 1, 768" offset="40093744" size="3072" />
			<output>
				<port id="0" precision="FP32">
					<dim>1</dim>
					<dim>1</dim>
					<dim>768</dim>
				</port>
			</output>
		</layer>
		<layer id="348" name="__module.distilbert.transformer.layer.2.attention/aten::view/Reshape_4_0_0/nncf_smooth_quant" type="Multiply" version="opset1">
			<data auto_broadcast="numpy" />
			<input>
				<port id="0" precision="FP32">
					<dim>1</dim>
					<dim>-1</dim>
					<dim>768</dim>
				</port>
				<port id="1" precision="FP32">
					<dim>1</dim>
					<dim>1</dim>
					<dim>768</dim>
				</port>
			</input>
			<output>
				<port id="2" precision="FP32">
					<dim>1</dim>
					<dim>-1</dim>
					<dim>768</dim>
				</port>
			</output>
		</layer>
		<layer id="349" name="__module.distilbert.transformer.layer.2.attention/aten::view/Reshape_4_0_0/nncf_smooth_quant/fq_output_0/input_low" type="Const" version="opset1">
			<data element_type="f32" shape="" offset="40096816" size="4" />
			<output>
				<port id="0" precision="FP32" />
			</output>
		</layer>
		<layer id="350" name="__module.distilbert.transformer.layer.2.attention/aten::view/Reshape_4_0_0/nncf_smooth_quant/fq_output_0/input_high" type="Const" version="opset1">
			<data element_type="f32" shape="" offset="40096820" size="4" />
			<output>
				<port id="0" precision="FP32" />
			</output>
		</layer>
		<layer id="351" name="__module.distilbert.transformer.layer.2.attention/aten::view/Reshape_4_0_0/nncf_smooth_quant/fq_output_0/output_low" type="Const" version="opset1">
			<data element_type="f32" shape="" offset="40096816" size="4" />
			<output>
				<port id="0" precision="FP32" />
			</output>
		</layer>
		<layer id="352" name="__module.distilbert.transformer.layer.2.attention/aten::view/Reshape_4_0_0/nncf_smooth_quant/fq_output_0/output_high" type="Const" version="opset1">
			<data element_type="f32" shape="" offset="40096820" size="4" />
			<output>
				<port id="0" precision="FP32" />
			</output>
		</layer>
		<layer id="353" name="__module.distilbert.transformer.layer.2.attention/aten::view/Reshape_4_0_0/nncf_smooth_quant/fq_output_0" type="FakeQuantize" version="opset1">
			<data levels="256" auto_broadcast="numpy" />
			<input>
				<port id="0" precision="FP32">
					<dim>1</dim>
					<dim>-1</dim>
					<dim>768</dim>
				</port>
				<port id="1" precision="FP32" />
				<port id="2" precision="FP32" />
				<port id="3" precision="FP32" />
				<port id="4" precision="FP32" />
			</input>
			<output>
				<port id="5" precision="FP32">
					<dim>1</dim>
					<dim>-1</dim>
					<dim>768</dim>
				</port>
			</output>
		</layer>
		<layer id="354" name="Constant_207960" type="Const" version="opset1">
			<data element_type="i8" shape="768, 768" offset="40096824" size="589824" />
			<output>
				<port id="0" precision="I8">
					<dim>768</dim>
					<dim>768</dim>
				</port>
			</output>
		</layer>
		<layer id="355" name="Convert_207961" type="Convert" version="opset1">
			<data destination_type="f32" />
			<input>
				<port id="0" precision="I8">
					<dim>768</dim>
					<dim>768</dim>
				</port>
			</input>
			<output>
				<port id="1" precision="FP32">
					<dim>768</dim>
					<dim>768</dim>
				</port>
			</output>
		</layer>
		<layer id="356" name="Constant_207962" type="Const" version="opset1">
			<data element_type="f32" shape="768, 1" offset="40686648" size="3072" />
			<output>
				<port id="0" precision="FP32">
					<dim>768</dim>
					<dim>1</dim>
				</port>
			</output>
		</layer>
		<layer id="357" name="__module.distilbert.transformer.layer.2.attention.out_lin/aten::linear/MatMul/fq_weights_1" type="Multiply" version="opset1">
			<data auto_broadcast="numpy" />
			<input>
				<port id="0" precision="FP32">
					<dim>768</dim>
					<dim>768</dim>
				</port>
				<port id="1" precision="FP32">
					<dim>768</dim>
					<dim>1</dim>
				</port>
			</input>
			<output>
				<port id="2" precision="FP32">
					<dim>768</dim>
					<dim>768</dim>
				</port>
			</output>
		</layer>
		<layer id="358" name="__module.distilbert.transformer.layer.2.attention.out_lin/aten::linear/MatMul" type="MatMul" version="opset1">
			<data transpose_a="false" transpose_b="true" />
			<input>
				<port id="0" precision="FP32">
					<dim>1</dim>
					<dim>-1</dim>
					<dim>768</dim>
				</port>
				<port id="1" precision="FP32">
					<dim>768</dim>
					<dim>768</dim>
				</port>
			</input>
			<output>
				<port id="2" precision="FP32">
					<dim>1</dim>
					<dim>-1</dim>
					<dim>768</dim>
				</port>
			</output>
		</layer>
		<layer id="359" name="Constant_6822" type="Const" version="opset1">
			<data element_type="f32" shape="1, 1, 768" offset="40689720" size="3072" />
			<output>
				<port id="0" precision="FP32">
					<dim>1</dim>
					<dim>1</dim>
					<dim>768</dim>
				</port>
			</output>
		</layer>
		<layer id="360" name="__module.distilbert.transformer.layer.2.attention.out_lin/aten::linear/Add" type="Add" version="opset1">
			<data auto_broadcast="numpy" />
			<input>
				<port id="0" precision="FP32">
					<dim>1</dim>
					<dim>-1</dim>
					<dim>768</dim>
				</port>
				<port id="1" precision="FP32">
					<dim>1</dim>
					<dim>1</dim>
					<dim>768</dim>
				</port>
			</input>
			<output>
				<port id="2" precision="FP32" names="258,sa_output.9">
					<dim>1</dim>
					<dim>-1</dim>
					<dim>768</dim>
				</port>
			</output>
		</layer>
		<layer id="361" name="__module.distilbert.transformer.layer.2/aten::add/Add" type="Add" version="opset1">
			<data auto_broadcast="numpy" />
			<input>
				<port id="0" precision="FP32">
					<dim>1</dim>
					<dim>-1</dim>
					<dim>768</dim>
				</port>
…
		<edge from-layer="121" from-port="2" to-layer="123" to-port="0" />
		<edge from-layer="121" from-port="2" to-layer="151" to-port="1" />
		<edge from-layer="122" from-port="0" to-layer="123" to-port="1" />
		<edge from-layer="123" from-port="2" to-layer="128" to-port="0" />
		<edge from-layer="124" from-port="0" to-layer="128" to-port="1" />
		<edge from-layer="125" from-port="0" to-layer="128" to-port="2" />
		<edge from-layer="126" from-port="0" to-layer="128" to-port="3" />
		<edge from-layer="127" from-port="0" to-layer="128" to-port="4" />
		<edge from-layer="128" from-port="5" to-layer="133" to-port="0" />
		<edge from-layer="129" from-port="0" to-layer="130" to-port="0" />
		<edge from-layer="130" from-port="1" to-layer="132" to-port="0" />
		<edge from-layer="131" from-port="0" to-layer="132" to-port="1" />
		<edge from-layer="132" from-port="2" to-layer="133" to-port="1" />
		<edge from-layer="133" from-port="2" to-layer="135" to-port="0" />
		<edge from-layer="134" from-port="0" to-layer="135" to-port="1" />
		<edge from-layer="135" from-port="2" to-layer="136" to-port="0" />
		<edge from-layer="136" from-port="1" to-layer="138" to-port="0" />
		<edge from-layer="137" from-port="0" to-layer="138" to-port="1" />
		<edge from-layer="138" from-port="2" to-layer="143" to-port="0" />
		<edge from-layer="139" from-port="0" to-layer="143" to-port="1" />
		<edge from-layer="140" from-port="0" to-layer="143" to-port="2" />
		<edge from-layer="141" from-port="0" to-layer="143" to-port="3" />
		<edge from-layer="142" from-port="0" to-layer="143" to-port="4" />
		<edge from-layer="143" from-port="5" to-layer="148" to-port="0" />
		<edge from-layer="144" from-port="0" to-layer="145" to-port="0" />
		<edge from-layer="145" from-port="1" to-layer="147" to-port="0" />
		<edge from-layer="146" from-port="0" to-layer="147" to-port="1" />
		<edge from-layer="147" from-port="2" to-layer="148" to-port="1" />
		<edge from-layer="148" from-port="2" to-layer="150" to-port="0" />
		<edge from-layer="149" from-port="0" to-layer="150" to-port="1" />
		<edge from-layer="150" from-port="2" to-layer="151" to-port="0" />
		<edge from-layer="151" from-port="2" to-layer="153" to-port="0" />
		<edge from-layer="152" from-port="0" to-layer="153" to-port="1" />
		<edge from-layer="153" from-port="2" to-layer="155" to-port="0" />
		<edge from-layer="154" from-port="0" to-layer="155" to-port="1" />
		<edge from-layer="155" from-port="2" to-layer="157" to-port="0" />
		<edge from-layer="156" from-port="0" to-layer="157" to-port="1" />
		<edge from-layer="157" from-port="2" to-layer="158" to-port="0" />
		<edge from-layer="157" from-port="2" to-layer="241" to-port="1" />
		<edge from-layer="157" from-port="2" to-layer="165" to-port="0" />
		<edge from-layer="158" from-port="1" to-layer="161" to-port="0" />
		<edge from-layer="159" from-port="0" to-layer="161" to-port="1" />
		<edge from-layer="160" from-port="0" to-layer="161" to-port="2" />
		<edge from-layer="161" from-port="3" to-layer="162" to-port="3" />
		<edge from-layer="162" from-port="4" to-layer="163" to-port="1" />
		<edge from-layer="163" from-port="2" to-layer="567" to-port="0" />
		<edge from-layer="163" from-port="2" to-layer="207" to-port="0" />
		<edge from-layer="163" from-port="2" to-layer="687" to-port="0" />
		<edge from-layer="163" from-port="2" to-layer="327" to-port="0" />
		<edge from-layer="163" from-port="2" to-layer="447" to-port="0" />
		<edge from-layer="164" from-port="0" to-layer="165" to-port="1" />
		<edge from-layer="165" from-port="2" to-layer="170" to-port="0" />
		<edge from-layer="166" from-port="0" to-layer="170" to-port="1" />
		<edge from-layer="167" from-port="0" to-layer="170" to-port="2" />
		<edge from-layer="168" from-port="0" to-layer="170" to-port="3" />
		<edge from-layer="169" from-port="0" to-layer="170" to-port="4" />
		<edge from-layer="170" from-port="5" to-layer="175" to-port="0" />
		<edge from-layer="170" from-port="5" to-layer="193" to-port="0" />
		<edge from-layer="170" from-port="5" to-layer="215" to-port="0" />
		<edge from-layer="171" from-port="0" to-layer="172" to-port="0" />
		<edge from-layer="172" from-port="1" to-layer="174" to-port="0" />
		<edge from-layer="173" from-port="0" to-layer="174" to-port="1" />
		<edge from-layer="174" from-port="2" to-layer="175" to-port="1" />
		<edge from-layer="175" from-port="2" to-layer="177" to-port="0" />
		<edge from-layer="176" from-port="0" to-layer="177" to-port="1" />
		<edge from-layer="177" from-port="2" to-layer="179" to-port="0" />
		<edge from-layer="178" from-port="0" to-layer="179" to-port="1" />
		<edge from-layer="179" from-port="2" to-layer="181" to-port="0" />
		<edge from-layer="180" from-port="0" to-layer="181" to-port="1" />
		<edge from-layer="181" from-port="2" to-layer="183" to-port="0" />
		<edge from-layer="182" from-port="0" to-layer="183" to-port="1" />
		<edge from-layer="183" from-port="2" to-layer="188" to-port="0" />
		<edge from-layer="184" from-port="0" to-layer="188" to-port="1" />
		<edge from-layer="185" from-port="0" to-layer="188" to-port="2" />
		<edge from-layer="186" from-port="0" to-layer="188" to-port="3" />
		<edge from-layer="187" from-port="0" to-layer="188" to-port="4" />
		<edge from-layer="188" from-port="5" to-layer="205" to-port="0" />
		<edge from-layer="189" from-port="0" to-layer="190" to-port="0" />
		<edge from-layer="190" from-port="1" to-layer="192" to-port="0" />
		<edge from-layer="191" from-port="0" to-layer="192" to-port="1" />
		<edge from-layer="192" from-port="2" to-layer="193" to-port="1" />
		<edge from-layer="193" from-port="2" to-layer="195" to-port="0" />
		<edge from-layer="194" from-port="0" to-layer="195" to-port="1" />
		<edge from-layer="195" from-port="2" to-layer="200" to-port="0" />
		<edge from-layer="196" from-port="0" to-layer="200" to-port="1" />
		<edge from-layer="197" from-port="0" to-layer="200" to-port="2" />
		<edge from-layer="198" from-port="0" to-layer="200" to-port="3" />
		<edge from-layer="199" from-port="0" to-layer="200" to-port="4" />
		<edge from-layer="200" from-port="5" to-layer="202" to-port="0" />
		<edge from-layer="201" from-port="0" to-layer="202" to-port="1" />
		<edge from-layer="202" from-port="2" to-layer="204" to-port="0" />
		<edge from-layer="203" from-port="0" to-layer="204" to-port="1" />
		<edge from-layer="204" from-port="2" to-layer="205" to-port="1" />
		<edge from-layer="205" from-port="2" to-layer="209" to-port="2" />
		<edge from-layer="205" from-port="2" to-layer="206" to-port="0" />
		<edge from-layer="206" from-port="1" to-layer="207" to-port="1" />
		<edge from-layer="207" from-port="2" to-layer="209" to-port="0" />
		<edge from-layer="208" from-port="0" to-layer="209" to-port="1" />
		<edge from-layer="209" from-port="3" to-layer="210" to-port="0" />
		<edge from-layer="210" from-port="1" to-layer="222" to-port="0" />
		<edge from-layer="211" from-port="0" to-layer="212" to-port="0" />
		<edge from-layer="212" from-port="1" to-layer="214" to-port="0" />
		<edge from-layer="213" from-port="0" to-layer="214" to-port="1" />
		<edge from-layer="214" from-port="2" to-layer="215" to-port="1" />
		<edge from-layer="215" from-port="2" to-layer="217" to-port="0" />
		<edge from-layer="216" from-port="0" to-layer="217" to-port="1" />
		<edge from-layer="217" from-port="2" to-layer="219" to-port="0" />
		<edge from-layer="218" from-port="0" to-layer="219" to-port="1" />
		<edge from-layer="219" from-port="2" to-layer="221" to-port="0" />
		<edge from-layer="220" from-port="0" to-layer="221" to-port="1" />
		<edge from-layer="221" from-port="2" to-layer="222" to-port="1" />
		<edge from-layer="222" from-port="2" to-layer="224" to-port="0" />
		<edge from-layer="223" from-port="0" to-layer="224" to-port="1" />
		<edge from-layer="224" from-port="2" to-layer="226" to-port="0" />
		<edge from-layer="225" from-port="0" to-layer="226" to-port="1" />
		<edge from-layer="226" from-port="2" to-layer="228" to-port="0" />
		<edge from-layer="227" from-port="0" to-layer="228" to-port="1" />
		<edge from-layer="228" from-port="2" to-layer="233" to-port="0" />
		<edge from-layer="229" from-port="0" to-layer="233" to-port="1" />
		<edge from-layer="230" from-port="0" to-layer="233" to-port="2" />
		<edge from-layer="231" from-port="0" to-layer="233" to-port="3" />
		<edge from-layer="232" from-port="0" to-layer="233" to-port="4" />
		<edge from-layer="233" from-port="5" to-layer="238" to-port="0" />
		<edge from-layer="234" from-port="0" to-layer="235" to-port="0" />
		<edge from-layer="235" from-port="1" to-layer="237" to-port="0" />
		<edge from-layer="236" from-port="0" to-layer="237" to-port="1" />
		<edge from-layer="237" from-port="2" to-layer="238" to-port="1" />
		<edge from-layer="238" from-port="2" to-layer="240" to-port="0" />
		<edge from-layer="239" from-port="0" to-layer="240" to-port="1" />
		<edge from-layer="240" from-port="2" to-layer="241" to-port="0" />
		<edge from-layer="241" from-port="2" to-layer="243" to-port="0" />
		<edge from-layer="242" from-port="0" to-layer="243" to-port="1" />
		<edge from-layer="243" from-port="2" to-layer="245" to-port="0" />
		<edge from-layer="244" from-port="0" to-layer="245" to-port="1" />
		<edge from-layer="245" from-port="2" to-layer="247" to-port="0" />
		<edge from-layer="246" from-port="0" to-layer="247" to-port="1" />
		<edge from-layer="247" from-port="2" to-layer="249" to-port="0" />
		<edge from-layer="247" from-port="2" to-layer="277" to-port="1" />
		<edge from-layer="248" from-port="0" to-layer="249" to-port="1" />
		<edge from-layer="249" from-port="2" to-layer="254" to-port="0" />
		<edge from-layer="250" from-port="0" to-layer="254" to-port="1" />
		<edge from-layer="251" from-port="0" to-layer="254" to-port="2" />
		<edge from-layer="252" from-port="0" to-layer="254" to-port="3" />
		<edge from-layer="253" from-port="0" to-layer="254" to-port="4" />
		<edge from-layer="254" from-port="5" to-layer="259" to-port="0" />
		<edge from-layer="255" from-port="0" to-layer="256" to-port="0" />
		<edge from-layer="256" from-port="1" to-layer="258" to-port="0" />
		<edge from-layer="257" from-port="0" to-layer="258" to-port="1" />
		<edge from-layer="258" from-port="2" to-layer="259" to-port="1" />
		<edge from-layer="259" from-port="2" to-layer="261" to-port="0" />
		<edge from-layer="260" from-port="0" to-layer="261" to-port="1" />
		<edge from-layer="261" from-port="2" to-layer="262" to-port="0" />
		<edge from-layer="262" from-port="1" to-layer="264" to-port="0" />
		<edge from-layer="263" from-port="0" to-layer="264" to-port="1" />
		<edge from-layer="264" from-port="2" to-layer="269" to-port="0" />
		<edge from-layer="265" from-port="0" to-layer="269" to-port="1" />
		<edge from-layer="266" from-port="0" to-layer="269" to-port="2" />
		<edge from-layer="267" from-port="0" to-layer="269" to-port="3" />
		<edge from-layer="268" from-port="0" to-layer="269" to-port="4" />
		<edge from-layer="269" from-port="5" to-layer="274" to-port="0" />
		<edge from-layer="270" from-port="0" to-layer="271" to-port="0" />
		<edge from-layer="271" from-port="1" to-layer="273" to-port="0" />
		<edge from-layer="272" from-port="0" to-layer="273" to-port="1" />
		<edge from-layer="273" from-port="2" to-layer="274" to-port="1" />
		<edge from-layer="274" from-port="2" to-layer="276" to-port="0" />
		<edge from-layer="275" from-port="0" to-layer="276" to-port="1" />
		<edge from-layer="276" from-port="2" to-layer="277" to-port="0" />
		<edge from-layer="277" from-port="2" to-layer="279" to-port="0" />
		<edge from-layer="278" from-port="0" to-layer="279" to-port="1" />
		<edge from-layer="279" from-port="2" to-layer="281" to-port="0" />
		<edge from-layer="280" from-port="0" to-layer="281" to-port="1" />
		<edge from-layer="281" from-port="2" to-layer="283" to-port="0" />
		<edge from-layer="282" from-port="0" to-layer="283" to-port="1" />
		<edge from-layer="283" from-port="2" to-layer="285" to-port="0" />
		<edge from-layer="283" from-port="2" to-layer="361" to-port="1" />
		<edge from-layer="284" from-port="0" to-layer="285" to-port="1" />
		<edge from-layer="285" from-port="2" to-layer="290" to-port="0" />
		<edge from-layer="286" from-port="0" to-layer="290" to-port="1" />
		<edge from-layer="287" from-port="0" to-layer="290" to-port="2" />
		<edge from-layer="288" from-port="0" to-layer="290" to-port="3" />
		<edge from-layer="289" from-port="0" to-layer="290" to-port="4" />
		<edge from-layer="290" from-port="5" to-layer="295" to-port="0" />
		<edge from-layer="290" from-port="5" to-layer="313" to-port="0" />
		<edge from-layer="290" from-port="5" to-layer="335" to-port="0" />
		<edge from-layer="291" from-port="0" to-layer="292" to-port="0" />
		<edge from-layer="292" from-port="1" to-layer="294" to-port="0" />
		<edge from-layer="293" from-port="0" to-layer="294" to-port="1" />
		<edge from-layer="294" from-port="2" to-layer="295" to-port="1" />
		<edge from-layer="295" from-port="2" to-layer="297" to-port="0" />
		<edge from-layer="296" from-port="0" to-layer="297" to-port="1" />
		<edge from-layer="297" from-port="2" to-layer="299" to-port="0" />
		<edge from-layer="298" from-port="0" to-layer="299" to-port="1" />
		<edge from-layer="299" from-port="2" to-layer="301" to-port="0" />
		<edge from-layer="300" from-port="0" to-layer="301" to-port="1" />
		<edge from-layer="301" from-port="2" to-layer="303" to-port="0" />
		<edge from-layer="302" from-port="0" to-layer="303" to-port="1" />
		<edge from-layer="303" from-port="2" to-layer="308" to-port="0" />
		<edge from-layer="304" from-port="0" to-layer="308" to-port="1" />
		<edge from-layer="305" from-port="0" to-layer="308" to-port="2" />
		<edge from-layer="306" from-port="0" to-layer="308" to-port="3" />
		<edge from-layer="307" from-port="0" to-layer="308" to-port="4" />
		<edge from-layer="308" from-port="5" to-layer="325" to-port="0" />
		<edge from-layer="309" from-port="0" to-layer="310" to-port="0" />
		<edge from-layer="310" from-port="1" to-layer="312" to-port="0" />
		<edge from-layer="311" from-port="0" to-layer="312" to-port="1" />
		<edge from-layer="312" from-port="2" to-layer="313" to-port="1" />
		<edge from-layer="313" from-port="2" to-layer="315" to-port="0" />
		<edge from-layer="314" from-port="0" to-layer="315" to-port="1" />
		<edge from-layer="315" from-port="2" to-layer="320" to-port="0" />
		<edge from-layer="316" from-port="0" to-layer="320" to-port="1" />
		<edge from-layer="317" from-port="0" to-layer="320" to-port="2" />
		<edge from-layer="318" from-port="0" to-layer="320" to-port="3" />
		<edge from-layer="319" from-port="0" to-layer="320" to-port="4" />
		<edge from-layer="320" from-port="5" to-layer="322" to-port="0" />
		<edge from-layer="321" from-port="0" to-layer="322" to-port="1" />
		<edge from-layer="322" from-port="2" to-layer="324" to-port="0" />
		<edge from-layer="323" from-port="0" to-layer="324" to-port="1" />
		<edge from-layer="324" from-port="2" to-layer="325" to-port="1" />
		<edge from-layer="325" from-port="2" to-layer="326" to-port="0" />
		<edge from-layer="325" from-port="2" to-layer="329" to-port="2" />
		<edge from-layer="326" from-port="1" to-layer="327" to-port="1" />
		<edge from-layer="327" from-port="2" to-layer="329" to-port="0" />
		<edge from-layer="328" from-port="0" to-layer="329" to-port="1" />
		<edge from-layer="329" from-port="3" to-layer="330" to-port="0" />
		<edge from-layer="330" from-port="1" to-layer="342" to-port="0" />
		<edge from-layer="331" from-port="0" to-layer="332" to-port="0" />
		<edge from-layer="332" from-port="1" to-layer="334" to-port="0" />
		<edge from-layer="333" from-port="0" to-layer="334" to-port="1" />
		<edge from-layer="334" from-port="2" to-layer="335" to-port="1" />
		<edge from-layer="335" from-port="2" to-layer="337" to-port="0" />
		<edge from-layer="336" from-port="0" to-layer="337" to-port="1" />
		<edge from-layer="337" from-port="2" to-layer="339" to-port="0" />
		<edge from-layer="338" from-port="0" to-layer="339" to-port="1" />
		<edge from-layer="339" from-port="2" to-layer="341" to-port="0" />
		<edge from-layer="340" from-port="0" to-layer="341" to-port="1" />
		<edge from-layer="341" from-port="2" to-layer="342" to-port="1" />
		<edge from-layer="342" from-port="2" to-layer="344" to-port="0" />
		<edge from-layer="343" from-port="0" to-layer="344" to-port="1" />
		<edge from-layer="344" from-port="2" to-layer="346" to-port="0" />
		<edge from-layer="345" from-port="0" to-layer="346" to-port="1" />
		<edge from-layer="346" from-port="2" to-layer="348" to-port="0" />
		<edge from-layer="347" from-port="0" to-layer="348" to-port="1" />
		<edge from-layer="348" from-port="2" to-layer="353" to-port="0" />
		<edge from-layer="349" from-port="0" to-layer="353" to-port="1" />
		<edge from-layer="350" from-port="0" to-layer="353" to-port="2" />
		<edge from-layer="351" from-port="0" to-layer="353" to-port="3" />
		<edge from-layer="352" from-port="0" to-layer="353" to-port="4" />
		<edge from-layer="353" from-port="5" to-layer="358" to-port="0" />
		<edge from-layer="354" from-port="0" to-layer="355" to-port="0" />
		<edge from-layer="355" from-port="1" to-layer="357" to-port="0" />
		<edge from-layer="356" from-port="0" to-layer="357" to-port="1" />
		<edge from-layer="357" from-port="2" to-layer="358" to-port="1" />
		<edge from-layer="358" from-port="2" to-layer="360" to-port="0" />
		<edge from-layer="359" from-port="0" to-layer="360" to-port="1" />
		<edge from-layer="360" from-port="2" to-layer="361" to-port="0" />
		<edge from-layer="361" from-port="2" to-layer="363" to-port="0" />
		<edge from-layer="362" from-port="0" to-layer="363" to-port="1" />
		<edge from-layer="363" from-port="2" to-layer="365" to-port="0" />
		<edge from-layer="364" from-port="0" to-layer="365" to-port="1" />
		<edge from-layer="365" from-port="2" to-layer="367" to-port="0" />
		<edge from-layer="366" from-port="0" to-layer="367" to-port="1" />
		<edge from-layer="367" from-port="2" to-layer="369" to-port="0" />
		<edge from-layer="367" from-port="2" to-layer="397" to-port="1" />
		<edge from-layer="368" from-port="0" to-layer="369" to-port="1" />
		<edge from-layer="369" from-port="2" to-layer="374" to-port="0" />
		<edge from-layer="370" from-port="0" to-layer="374" to-port="1" />
		<edge from-layer="371" from-port="0" to-layer="374" to-port="2" />
		<edge from-layer="372" from-port="0" to-layer="374" to-port="3" />
		<edge from-layer="373" from-port="0" to-layer="374" to-port="4" />
		<edge from-layer="374" from-port="5" to-layer="379" to-port="0" />
		<edge from-layer="375" from-port="0" to-layer="376" to-port="0" />
		<edge from-layer="376" from-port="1" to-layer="378" to-port="0" />
		<edge from-layer="377" from-port="0" to-layer="378" to-port="1" />
		<edge from-layer="378" from-port="2" to-layer="379" to-port="1" />
		<edge from-layer="379" from-port="2" to-layer="381" to-port="0" />
		<edge from-layer="380" from-port="0" to-layer="381" to-port="1" />
		<edge from-layer="381" from-port="2" to-layer="382" to-port="0" />
		<edge from-layer="382" from-port="1" to-layer="384" to-port="0" />
		<edge from-layer="383" from-port="0" to-layer="384" to-port="1" />
		<edge from-layer="384" from-port="2" to-layer="389" to-port="0" />
		<edge from-layer="385" from-port="0" to-layer="389" to-port="1" />
		<edge from-layer="386" from-port="0" to-layer="389" to-port="2" />
		<edge from-layer="387" from-port="0" to-layer="389" to-port="3" />
		<edge from-layer="388" from-port="0" to-layer="389" to-port="4" />
		<edge from-layer="389" from-port="5" to-layer="394" to-port="0" />
		<edge from-layer="390" from-port="0" to-layer="391" to-port="0" />
		<edge from-layer="391" from-port="1" to-layer="393" to-port="0" />
		<edge from-layer="392" from-port="0" to-layer="393" to-port="1" />
		<edge from-layer="393" from-port="2" to-layer="394" to-port="1" />
		<edge from-layer="394" from-port="2" to-layer="396" to-port="0" />
		<edge from-layer="395" from-port="0" to-layer="396" to-port="1" />
		<edge from-layer="396" from-port="2" to-layer="397" to-port="0" />
		<edge from-layer="397" from-port="2" to-layer="399" to-port="0" />
		<edge from-layer="398" from-port="0" to-layer="399" to-port="1" />
		<edge from-layer="399" from-port="2" to-layer="401" to-port="0" />
		<edge from-layer="400" from-port="0" to-layer="401" to-port="1" />
		<edge from-layer="401" from-port="2" to-layer="403" to-port="0" />
		<edge from-layer="402" from-port="0" to-layer="403" to-port="1" />
		<edge from-layer="403" from-port="2" to-layer="405" to-port="0" />
		<edge from-layer="403" from-port="2" to-layer="481" to-port="1" />
		<edge from-layer="404" from-port="0" to-layer="405" to-port="1" />
		<edge from-layer="405" from-port="2" to-layer="410" to-port="0" />
		<edge from-layer="406" from-port="0" to-layer="410" to-port="1" />
		<edge from-layer="407" from-port="0" to-layer="410" to-port="2" />
		<edge from-layer="408" from-port="0" to-layer="410" to-port="3" />
		<edge from-layer="409" from-port="0" to-layer="410" to-port="4" />
		<edge from-layer="410" from-port="5" to-layer="415" to-port="0" />
		<edge from-layer="410" from-port="5" to-layer="433" to-port="0" />
		<edge from-layer="410" from-port="5" to-layer="455" to-port="0" />
		<edge from-layer="411" from-port="0" to-layer="412" to-port="0" />
		<edge from-layer="412" from-port="1" to-layer="414" to-port="0" />
		<edge from-layer="413" from-port="0" to-layer="414" to-port="1" />
		<edge from-layer="414" from-port="2" to-layer="415" to-port="1" />
		<edge from-layer="415" from-port="2" to-layer="417" to-port="0" />
		<edge from-layer="416" from-port="0" to-layer="417" to-port="1" />
		<edge from-layer="417" from-port="2" to-layer="419" to-port="0" />
		<edge from-layer="418" from-port="0" to-layer="419" to-port="1" />
		<edge from-layer="419" from-port="2" to-layer="421" to-port="0" />
		<edge from-layer="420" from-port="0" to-layer="421" to-port="1" />
		<edge from-layer="421" from-port="2" to-layer="423" to-port="0" />
		<edge from-layer="422" from-port="0" to-layer="423" to-port="1" />
		<edge from-layer="423" from-port="2" to-layer="428" to-port="0" />
		<edge from-layer="424" from-port="0" to-layer="428" to-port="1" />
		<edge from-layer="425" from-port="0" to-layer="428" to-port="2" />
		<edge from-layer="426" from-port="0" to-layer="428" to-port="3" />
		<edge from-layer="427" from-port="0" to-layer="428" to-port="4" />
		<edge from-layer="428" from-port="5" to-layer="445" to-port="0" />
		<edge from-layer="429" from-port="0" to-layer="430" to-port="0" />
		<edge from-layer="430" from-port="1" to-layer="432" to-port="0" />
		<edge from-layer="431" from-port="0" to-layer="432" to-port="1" />
		<edge from-layer="432" from-port="2" to-layer="433" to-port="1" />
		<edge from-layer="433" from-port="2" to-layer="435" to-port="0" />
		<edge from-layer="434" from-port="0" to-layer="435" to-port="1" />
		<edge from-layer="435" from-port="2" to-layer="440" to-port="0" />
		<edge from-layer="436" from-port="0" to-layer="440" to-port="1" />
		<edge from-layer="437" from-port="0" to-layer="440" to-port="2" />
		<edge from-layer="438" from-port="0" to-layer="440" to-port="3" />
		<edge from-layer="439" from-port="0" to-layer="440" to-port="4" />
		<edge from-layer="440" from-port="5" to-layer="442" to-port="0" />
		<edge from-layer="441" from-port="0" to-layer="442" to-port="1" />
		<edge from-layer="442" from-port="2" to-layer="444" to-port="0" />
		<edge from-layer="443" from-port="0" to-layer="444" to-port="1" />
		<edge from-layer="444" from-port="2" to-layer="445" to-port="1" />
		<edge from-layer="445" from-port="2" to-layer="446" to-port="0" />
		<edge from-layer="445" from-port="2" to-layer="449" to-port="2" />
		<edge from-layer="446" from-port="1" to-layer="447" to-port="1" />
		<edge from-layer="447" from-port="2" to-layer="449" to-port="0" />
		<edge from-layer="448" from-port="0" to-layer="449" to-port="1" />
		<edge from-layer="449" from-port="3" to-layer="450" to-port="0" />
		<edge from-layer="450" from-port="1" to-layer="462" to-port="0" />
		<edge from-layer="451" from-port="0" to-layer="452" to-port="0" />
		<edge from-layer="452" from-port="1" to-layer="454" to-port="0" />
		<edge from-layer="453" from-port="0" to-layer="454" to-port="1" />
		<edge from-layer="454" from-port="2" to-layer="455" to-port="1" />
		<edge from-layer="455" from-port="2" to-layer="457" to-port="0" />
		<edge from-layer="456" from-port="0" to-layer="457" to-port="1" />
		<edge from-layer="457" from-port="2" to-layer="459" to-port="0" />
		<edge from-layer="458" from-port="0" to-layer="459" to-port="1" />
		<edge from-layer="459" from-port="2" to-layer="461" to-port="0" />
		<edge from-layer="460" from-port="0" to-layer="461" to-port="1" />
		<edge from-layer="461" from-port="2" to-layer="462" to-port="1" />
		<edge from-layer="462" from-port="2" to-layer="464" to-port="0" />
		<edge from-layer="463" from-port="0" to-layer="464" to-port="1" />
		<edge from-layer="464" from-port="2" to-layer="466" to-port="0" />
		<edge from-layer="465" from-port="0" to-layer="466" to-port="1" />
		<edge from-layer="466" from-port="2" to-layer="468" to-port="0" />
		<edge from-layer="467" from-port="0" to-layer="468" to-port="1" />
		<edge from-layer="468" from-port="2" to-layer="473" to-port="0" />
		<edge from-layer="469" from-port="0" to-layer="473" to-port="1" />
		<edge from-layer="470" from-port="0" to-layer="473" to-port="2" />
		<edge from-layer="471" from-port="0" to-layer="473" to-port="3" />
		<edge from-layer="472" from-port="0" to-layer="473" to-port="4" />
		<edge from-layer="473" from-port="5" to-layer="478" to-port="0" />
		<edge from-layer="474" from-port="0" to-layer="475" to-port="0" />
		<edge from-layer="475" from-port="1" to-layer="477" to-port="0" />
		<edge from-layer="476" from-port="0" to-layer="477" to-port="1" />
		<edge from-layer="477" from-port="2" to-layer="478" to-port="1" />
		<edge from-layer="478" from-port="2" to-layer="480" to-port="0" />
		<edge from-layer="479" from-port="0" to-layer="480" to-port="1" />
		<edge from-layer="480" from-port="2" to-layer="481" to-port="0" />
		<edge from-layer="481" from-port="2" to-layer="483" to-port="0" />
		<edge from-layer="482" from-port="0" to-layer="483" to-port="1" />
		<edge from-layer="483" from-port="2" to-layer="485" to-port="0" />
		<edge from-layer="484" from-port="0" to-layer="485" to-port="1" />
		<edge from-layer="485" from-port="2" to-layer="487" to-port="0" />
		<edge from-layer="486" from-port="0" to-layer="487" to-port="1" />
		<edge from-layer="487" from-port="2" to-layer="489" to-port="0" />
		<edge from-layer="487" from-port="2" to-layer="517" to-port="1" />
		<edge from-layer="488" from-port="0" to-layer="489" to-port="1" />
		<edge from-layer="489" from-port="2" to-layer="494" to-port="0" />
		<edge from-layer="490" from-port="0" to-layer="494" to-port="1" />
		<edge from-layer="491" from-port="0" to-layer="494" to-port="2" />
		<edge from-layer="492" from-port="0" to-layer="494" to-port="3" />
		<edge from-layer="493" from-port="0" to-layer="494" to-port="4" />
		<edge from-layer="494" from-port="5" to-layer="499" to-port="0" />
		<edge from-layer="495" from-port="0" to-layer="496" to-port="0" />
		<edge from-layer="496" from-port="1" to-layer="498" to-port="0" />
		<edge from-layer="497" from-port="0" to-layer="498" to-port="1" />
		<edge from-layer="498" from-port="2" to-layer="499" to-port="1" />
		<edge from-layer="499" from-port="2" to-layer="501" to-port="0" />
		<edge from-layer="500" from-port="0" to-layer="501" to-port="1" />
		<edge from-layer="501" from-port="2" to-layer="502" to-port="0" />
		<edge from-layer="502" from-port="1" to-layer="504" to-port="0" />
		<edge from-layer="503" from-port="0" to-layer="504" to-port="1" />
		<edge from-layer="504" from-port="2" to-layer="509" to-port="0" />
		<edge from-layer="505" from-port="0" to-layer="509" to-port="1" />
		<edge from-layer="506" from-port="0" to-layer="509" to-port="2" />
		<edge from-layer="507" from-port="0" to-layer="509" to-port="3" />
		<edge from-layer="508" from-port="0" to-layer="509" to-port="4" />
		<edge from-layer="509" from-port="5" to-layer="514" to-port="0" />
		<edge from-layer="510" from-port="0" to-layer="511" to-port="0" />
		<edge from-layer="511" from-port="1" to-layer="513" to-port="0" />
		<edge from-layer="512" from-port="0" to-layer="513" to-port="1" />
		<edge from-layer="513" from-port="2" to-layer="514" to-port="1" />
		<edge from-layer="514" from-port="2" to-layer="516" to-port="0" />
		<edge from-layer="515" from-port="0" to-layer="516" to-port="1" />
		<edge from-layer="516" from-port="2" to-layer="517" to-port="0" />
		<edge from-layer="517" from-port="2" to-layer="519" to-port="0" />
		<edge from-layer="518" from-port="0" to-layer="519" to-port="1" />
		<edge from-layer="519" from-port="2" to-layer="521" to-port="0" />
		<edge from-layer="520" from-port="0" to-layer="521" to-port="1" />
		<edge from-layer="521" from-port="2" to-layer="523" to-port="0" />
		<edge from-layer="522" from-port="0" to-layer="523" to-port="1" />
		<edge from-layer="523" from-port="2" to-layer="525" to-port="0" />
		<edge from-layer="523" from-port="2" to-layer="601" to-port="1" />
		<edge from-layer="524" from-port="0" to-layer="525" to-port="1" />
		<edge from-layer="525" from-port="2" to-layer="530" to-port="0" />
		<edge from-layer="526" from-port="0" to-layer="530" to-port="1" />
		<edge from-layer="527" from-port="0" to-layer="530" to-port="2" />
		<edge from-layer="528" from-port="0" to-layer="530" to-port="3" />
		<edge from-layer="529" from-port="0" to-layer="530" to-port="4" />
		<edge from-layer="530" from-port="5" to-layer="535" to-port="0" />
		<edge from-layer="530" from-port="5" to-layer="575" to-port="0" />
		<edge from-layer="530" from-port="5" to-layer="553" to-port="0" />
		<edge from-layer="531" from-port="0" to-layer="532" to-port="0" />
		<edge from-layer="532" from-port="1" to-layer="534" to-port="0" />
		<edge from-layer="533" from-port="0" to-layer="534" to-port="1" />
		<edge from-layer="534" from-port="2" to-layer="535" to-port="1" />
		<edge from-layer="535" from-port="2" to-layer="537" to-port="0" />
		<edge from-layer="536" from-port="0" to-layer="537" to-port="1" />
		<edge from-layer="537" from-port="2" to-layer="539" to-port="0" />
		<edge from-layer="538" from-port="0" to-layer="539" to-port="1" />
		<edge from-layer="539" from-port="2" to-layer="541" to-port="0" />
		<edge from-layer="540" from-port="0" to-layer="541" to-port="1" />
		<edge from-layer="541" from-port="2" to-layer="543" to-port="0" />
		<edge from-layer="542" from-port="0" to-layer="543" to-port="1" />
		<edge from-layer="543" from-port="2" to-layer="548" to-port="0" />
		<edge from-layer="544" from-port="0" to-layer="548" to-port="1" />
		<edge from-layer="545" from-port="0" to-layer="548" to-port="2" />
		<edge from-layer="546" from-port="0" to-layer="548" to-port="3" />
		<edge from-layer="547" from-port="0" to-layer="548" to-port="4" />
		<edge from-layer="548" from-port="5" to-layer="565" to-port="0" />
		<edge from-layer="549" from-port="0" to-layer="550" to-port="0" />
		<edge from-layer="550" from-port="1" to-layer="552" to-port="0" />
		<edge from-layer="551" from-port="0" to-layer="552" to-port="1" />
		<edge from-layer="552" from-port="2" to-layer="553" to-port="1" />
		<edge from-layer="553" from-port="2" to-layer="555" to-port="0" />
		<edge from-layer="554" from-port="0" to-layer="555" to-port="1" />
		<edge from-layer="555" from-port="2" to-layer="560" to-port="0" />
		<edge from-layer="556" from-port="0" to-layer="560" to-port="1" />
		<edge from-layer="557" from-port="0" to-layer="560" to-port="2" />
		<edge from-layer="558" from-port="0" to-layer="560" to-port="3" />
		<edge from-layer="559" from-port="0" to-layer="560" to-port="4" />
		<edge from-layer="560" from-port="5" to-layer="562" to-port="0" />
		<edge from-layer="561" from-port="0" to-layer="562" to-port="1" />
		<edge from-layer="562" from-port="2" to-layer="564" to-port="0" />
		<edge from-layer="563" from-port="0" to-layer="564" to-port="1" />
		<edge from-layer="564" from-port="2" to-layer="565" to-port="1" />
		<edge from-layer="565" from-port="2" to-layer="566" to-port="0" />
		<edge from-layer="565" from-port="2" to-layer="569" to-port="2" />
		<edge from-layer="566" from-port="1" to-layer="567" to-port="1" />
		<edge from-layer="567" from-port="2" to-layer="569" to-port="0" />
		<edge from-layer="568" from-port="0" to-layer="569" to-port="1" />
		<edge from-layer="569" from-port="3" to-layer="570" to-port="0" />
		<edge from-layer="570" from-port="1" to-layer="582" to-port="0" />
		<edge from-layer="571" from-port="0" to-layer="572" to-port="0" />
		<edge from-layer="572" from-port="1" to-layer="574" to-port="0" />
		<edge from-layer="573" from-port="0" to-layer="574" to-port="1" />
		<edge from-layer="574" from-port="2" to-layer="575" to-port="1" />
		<edge from-layer="575" from-port="2" to-layer="577" to-port="0" />
		<edge from-layer="576" from-port="0" to-layer="577" to-port="1" />
		<edge from-layer="577" from-port="2" to-layer="579" to-port="0" />
		<edge from-layer="578" from-port="0" to-layer="579" to-port="1" />
		<edge from-layer="579" from-port="2" to-layer="581" to-port="0" />
		<edge from-layer="580" from-port="0" to-layer="581" to-port="1" />
		<edge from-layer="581" from-port="2" to-layer="582" to-port="1" />
		<edge from-layer="582" from-port="2" to-layer="584" to-port="0" />
		<edge from-layer="583" from-port="0" to-layer="584" to-port="1" />
		<edge from-layer="584" from-port="2" to-layer="586" to-port="0" />
		<edge from-layer="585" from-port="0" to-layer="586" to-port="1" />
		<edge from-layer="586" from-port="2" to-layer="588" to-port="0" />
		<edge from-layer="587" from-port="0" to-layer="588" to-port="1" />
		<edge from-layer="588" from-port="2" to-layer="593" to-port="0" />
		<edge from-layer="589" from-port="0" to-layer="593" to-port="1" />
		<edge from-layer="590" from-port="0" to-layer="593" to-port="2" />
		<edge from-layer="591" from-port="0" to-layer="593" to-port="3" />
		<edge from-layer="592" from-port="0" to-layer="593" to-port="4" />
		<edge from-layer="593" from-port="5" to-layer="598" to-port="0" />
		<edge from-layer="594" from-port="0" to-layer="595" to-port="0" />
		<edge from-layer="595" from-port="1" to-layer="597" to-port="0" />
		<edge from-layer="596" from-port="0" to-layer="597" to-port="1" />
		<edge from-layer="597" from-port="2" to-layer="598" to-port="1" />
		<edge from-layer="598" from-port="2" to-layer="600" to-port="0" />
		<edge from-layer="599" from-port="0" to-layer="600" to-port="1" />
		<edge from-layer="600" from-port="2" to-layer="601" to-port="0" />
		<edge from-layer="601" from-port="2" to-layer="603" to-port="0" />
		<edge from-layer="602" from-port="0" to-layer="603" to-port="1" />
		<edge from-layer="603" from-port="2" to-layer="605" to-port="0" />
		<edge from-layer="604" from-port="0" to-layer="605" to-port="1" />
		<edge from-layer="605" from-port="2" to-layer="607" to-port="0" />
		<edge from-layer="606" from-port="0" to-layer="607" to-port="1" />
		<edge from-layer="607" from-port="2" to-layer="609" to-port="0" />
		<edge from-layer="607" from-port="2" to-layer="637" to-port="1" />
		<edge from-layer="608" from-port="0" to-layer="609" to-port="1" />
		<edge from-layer="609" from-port="2" to-layer="614" to-port="0" />
		<edge from-layer="610" from-port="0" to-layer="614" to-port="1" />
		<edge from-layer="611" from-port="0" to-layer="614" to-port="2" />
		<edge from-layer="612" from-port="0" to-layer="614" to-port="3" />
		<edge from-layer="613" from-port="0" to-layer="614" to-port="4" />
		<edge from-layer="614" from-port="5" to-layer="619" to-port="0" />
		<edge from-layer="615" from-port="0" to-layer="616" to-port="0" />
		<edge from-layer="616" from-port="1" to-layer="618" to-port="0" />
		<edge from-layer="617" from-port="0" to-layer="618" to-port="1" />
		<edge from-layer="618" from-port="2" to-layer="619" to-port="1" />
		<edge from-layer="619" from-port="2" to-layer="621" to-port="0" />
		<edge from-layer="620" from-port="0" to-layer="621" to-port="1" />
		<edge from-layer="621" from-port="2" to-layer="622" to-port="0" />
		<edge from-layer="622" from-port="1" to-layer="624" to-port="0" />
		<edge from-layer="623" from-port="0" to-layer="624" to-port="1" />
		<edge from-layer="624" from-port="2" to-layer="629" to-port="0" />
		<edge from-layer="625" from-port="0" to-layer="629" to-port="1" />
		<edge from-layer="626" from-port="0" to-layer="629" to-port="2" />
		<edge from-layer="627" from-port="0" to-layer="629" to-port="3" />
		<edge from-layer="628" from-port="0" to-layer="629" to-port="4" />
		<edge from-layer="629" from-port="5" to-layer="634" to-port="0" />
		<edge from-layer="630" from-port="0" to-layer="631" to-port="0" />
		<edge from-layer="631" from-port="1" to-layer="633" to-port="0" />
		<edge from-layer="632" from-port="0" to-layer="633" to-port="1" />
		<edge from-layer="633" from-port="2" to-layer="634" to-port="1" />
		<edge from-layer="634" from-port="2" to-layer="636" to-port="0" />
		<edge from-layer="635" from-port="0" to-layer="636" to-port="1" />
		<edge from-layer="636" from-port="2" to-layer="637" to-port="0" />
		<edge from-layer="637" from-port="2" to-layer="639" to-port="0" />
		<edge from-layer="638" from-port="0" to-layer="639" to-port="1" />
		<edge from-layer="639" from-port="2" to-layer="641" to-port="0" />
		<edge from-layer="640" from-port="0" to-layer="641" to-port="1" />
		<edge from-layer="641" from-port="2" to-layer="643" to-port="0" />
		<edge from-layer="642" from-port="0" to-layer="643" to-port="1" />
		<edge from-layer="643" from-port="2" to-layer="645" to-port="0" />
		<edge from-layer="643" from-port="2" to-layer="721" to-port="1" />
		<edge from-layer="644" from-port="0" to-layer="645" to-port="1" />
		<edge from-layer="645" from-port="2" to-layer="650" to-port="0" />
		<edge from-layer="646" from-port="0" to-layer="650" to-port="1" />
		<edge from-layer="647" from-port="0" to-layer="650" to-port="2" />
		<edge from-layer="648" from-port="0" to-layer="650" to-port="3" />
		<edge from-layer="649" from-port="0" to-layer="650" to-port="4" />
		<edge from-layer="650" from-port="5" to-layer="655" to-port="0" />
		<edge from-layer="650" from-port="5" to-layer="673" to-port="0" />
		<edge from-layer="650" from-port="5" to-layer="695" to-port="0" />
		<edge from-layer="651" from-port="0" to-layer="652" to-port="0" />
		<edge from-layer="652" from-port="1" to-layer="654" to-port="0" />
		<edge from-layer="653" from-port="0" to-layer="654" to-port="1" />
		<edge from-layer="654" from-port="2" to-layer="655" to-port="1" />
		<edge from-layer="655" from-port="2" to-layer="657" to-port="0" />
		<edge from-layer="656" from-port="0" to-layer="657" to-port="1" />
		<edge from-layer="657" from-port="2" to-layer="659" to-port="0" />
		<edge from-layer="658" from-port="0" to-layer="659" to-port="1" />
		<edge from-layer="659" from-port="2" to-layer="661" to-port="0" />
		<edge from-layer="660" from-port="0" to-layer="661" to-port="1" />
		<edge from-layer="661" from-port="2" to-layer="663" to-port="0" />
		<edge from-layer="662" from-port="0" to-layer="663" to-port="1" />
		<edge from-layer="663" from-port="2" to-layer="668" to-port="0" />
		<edge from-layer="664" from-port="0" to-layer="668" to-port="1" />
		<edge from-layer="665" from-port="0" to-layer="668" to-port="2" />
		<edge from-layer="666" from-port="0" to-layer="668" to-port="3" />
		<edge from-layer="667" from-port="0" to-layer="668" to-port="4" />
		<edge from-layer="668" from-port="5" to-layer="685" to-port="0" />
		<edge from-layer="669" from-port="0" to-layer="670" to-port="0" />
		<edge from-layer="670" from-port="1" to-layer="672" to-port="0" />
		<edge from-layer="671" from-port="0" to-layer="672" to-port="1" />
		<edge from-layer="672" from-port="2" to-layer="673" to-port="1" />
		<edge from-layer="673" from-port="2" to-layer="675" to-port="0" />
		<edge from-layer="674" from-port="0" to-layer="675" to-port="1" />
		<edge from-layer="675" from-port="2" to-layer="680" to-port="0" />
		<edge from-layer="676" from-port="0" to-layer="680" to-port="1" />
		<edge from-layer="677" from-port="0" to-layer="680" to-port="2" />
		<edge from-layer="678" from-port="0" to-layer="680" to-port="3" />
		<edge from-layer="679" from-port="0" to-layer="680" to-port="4" />
		<edge from-layer="680" from-port="5" to-layer="682" to-port="0" />
		<edge from-layer="681" from-port="0" to-layer="682" to-port="1" />
		<edge from-layer="682" from-port="2" to-layer="684" to-port="0" />
		<edge from-layer="683" from-port="0" to-layer="684" to-port="1" />
		<edge from-layer="684" from-port="2" to-layer="685" to-port="1" />
		<edge from-layer="685" from-port="2" to-layer="686" to-port="0" />
		<edge from-layer="685" from-port="2" to-layer="689" to-port="2" />
		<edge from-layer="686" from-port="1" to-layer="687" to-port="1" />
		<edge from-layer="687" from-port="2" to-layer="689" to-port="0" />
		<edge from-layer="688" from-port="0" to-layer="689" to-port="1" />
		<edge from-layer="689" from-port="3" to-layer="690" to-port="0" />
		<edge from-layer="690" from-port="1" to-layer="702" to-port="0" />
		<edge from-layer="691" from-port="0" to-layer="692" to-port="0" />
		<edge from-layer="692" from-port="1" to-layer="694" to-port="0" />
		<edge from-layer="693" from-port="0" to-layer="694" to-port="1" />
		<edge from-layer="694" from-port="2" to-layer="695" to-port="1" />
		<edge from-layer="695" from-port="2" to-layer="697" to-port="0" />
		<edge from-layer="696" from-port="0" to-layer="697" to-port="1" />
		<edge from-layer="697" from-port="2" to-layer="699" to-port="0" />
		<edge from-layer="698" from-port="0" to-layer="699" to-port="1" />
		<edge from-layer="699" from-port="2" to-layer="701" to-port="0" />
		<edge from-layer="700" from-port="0" to-layer="701" to-port="1" />
		<edge from-layer="701" from-port="2" to-layer="702" to-port="1" />
		<edge from-layer="702" from-port="2" to-layer="704" to-port="0" />
		<edge from-layer="703" from-port="0" to-layer="704" to-port="1" />
		<edge from-layer="704" from-port="2" to-layer="706" to-port="0" />
		<edge from-layer="705" from-port="0" to-layer="706" to-port="1" />
		<edge from-layer="706" from-port="2" to-layer="708" to-port="0" />
		<edge from-layer="707" from-port="0" to-layer="708" to-port="1" />
		<edge from-layer="708" from-port="2" to-layer="713" to-port="0" />
		<edge from-layer="709" from-port="0" to-layer="713" to-port="1" />
		<edge from-layer="710" from-port="0" to-layer="713" to-port="2" />
		<edge from-layer="711" from-port="0" to-layer="713" to-port="3" />
		<edge from-layer="712" from-port="0" to-layer="713" to-port="4" />
		<edge from-layer="713" from-port="5" to-layer="718" to-port="0" />
		<edge from-layer="714" from-port="0" to-layer="715" to-port="0" />
		<edge from-layer="715" from-port="1" to-layer="717" to-port="0" />
		<edge from-layer="716" from-port="0" to-layer="717" to-port="1" />
		<edge from-layer="717" from-port="2" to-layer="718" to-port="1" />
		<edge from-layer="718" from-port="2" to-layer="720" to-port="0" />
		<edge from-layer="719" from-port="0" to-layer="720" to-port="1" />
		<edge from-layer="720" from-port="2" to-layer="721" to-port="0" />
		<edge from-layer="721" from-port="2" to-layer="723" to-port="0" />
		<edge from-layer="722" from-port="0" to-layer="723" to-port="1" />
		<edge from-layer="723" from-port="2" to-layer="725" to-port="0" />
		<edge from-layer="724" from-port="0" to-layer="725" to-port="1" />
		<edge from-layer="725" from-port="2" to-layer="727" to-port="0" />
		<edge from-layer="726" from-port="0" to-layer="727" to-port="1" />
		<edge from-layer="727" from-port="2" to-layer="729" to-port="0" />
		<edge from-layer="727" from-port="2" to-layer="757" to-port="1" />
		<edge from-layer="728" from-port="0" to-layer="729" to-port="1" />
		<edge from-layer="729" from-port="2" to-layer="734" to-port="0" />
		<edge from-layer="730" from-port="0" to-layer="734" to-port="1" />
		<edge from-layer="731" from-port="0" to-layer="734" to-port="2" />
		<edge from-layer="732" from-port="0" to-layer="734" to-port="3" />
		<edge from-layer="733" from-port="0" to-layer="734" to-port="4" />
		<edge from-layer="734" from-port="5" to-layer="739" to-port="0" />
		<edge from-layer="735" from-port="0" to-layer="736" to-port="0" />
		<edge from-layer="736" from-port="1" to-layer="738" to-port="0" />
		<edge from-layer="737" from-port="0" to-layer="738" to-port="1" />
		<edge from-layer="738" from-port="2" to-layer="739" to-port="1" />
		<edge from-layer="739" from-port="2" to-layer="741" to-port="0" />
		<edge from-layer="740" from-port="0" to-layer="741" to-port="1" />
		<edge from-layer="741" from-port="2" to-layer="742" to-port="0" />
		<edge from-layer="742" from-port="1" to-layer="744" to-port="0" />
		<edge from-layer="743" from-port="0" to-layer="744" to-port="1" />
		<edge from-layer="744" from-port="2" to-layer="749" to-port="0" />
		<edge from-layer="745" from-port="0" to-layer="749" to-port="1" />
		<edge from-layer="746" from-port="0" to-layer="749" to-port="2" />
		<edge from-layer="747" from-port="0" to-layer="749" to-port="3" />
		<edge from-layer="748" from-port="0" to-layer="749" to-port="4" />
		<edge from-layer="749" from-port="5" to-layer="754" to-port="0" />
		<edge from-layer="750" from-port="0" to-layer="751" to-port="0" />
		<edge from-layer="751" from-port="1" to-layer="753" to-port="0" />
		<edge from-layer="752" from-port="0" to-layer="753" to-port="1" />
		<edge from-layer="753" from-port="2" to-layer="754" to-port="1" />
		<edge from-layer="754" from-port="2" to-layer="756" to-port="0" />
		<edge from-layer="755" from-port="0" to-layer="756" to-port="1" />
		<edge from-layer="756" from-port="2" to-layer="757" to-port="0" />
		<edge from-layer="757" from-port="2" to-layer="759" to-port="0" />
		<edge from-layer="758" from-port="0" to-layer="759" to-port="1" />
		<edge from-layer="759" from-port="2" to-layer="761" to-port="0" />
		<edge from-layer="760" from-port="0" to-layer="761" to-port="1" />
		<edge from-layer="761" from-port="2" to-layer="763" to-port="0" />
		<edge from-layer="762" from-port="0" to-layer="763" to-port="1" />
		<edge from-layer="763" from-port="2" to-layer="766" to-port="0" />
		<edge from-layer="764" from-port="0" to-layer="766" to-port="1" />
		<edge from-layer="765" from-port="0" to-layer="766" to-port="2" />
		<edge from-layer="766" from-port="3" to-layer="768" to-port="0" />
		<edge from-layer="767" from-port="0" to-layer="768" to-port="1" />
		<edge from-layer="768" from-port="2" to-layer="773" to-port="0" />
		<edge from-layer="769" from-port="0" to-layer="773" to-port="1" />
		<edge from-layer="770" from-port="0" to-layer="773" to-port="2" />
		<edge from-layer="771" from-port="0" to-layer="773" to-port="3" />
		<edge from-layer="772" from-port="0" to-layer="773" to-port="4" />
		<edge from-layer="773" from-port="5" to-layer="778" to-port="0" />
		<edge from-layer="774" from-port="0" to-layer="775" to-port="0" />
		<edge from-layer="775" from-port="1" to-layer="777" to-port="0" />
		<edge from-layer="776" from-port="0" to-layer="777" to-port="1" />
		<edge from-layer="777" from-port="2" to-layer="778" to-port="1" />
		<edge from-layer="778" from-port="2" to-layer="780" to-port="0" />
		<edge from-layer="779" from-port="0" to-layer="780" to-port="1" />
		<edge from-layer="780" from-port="2" to-layer="781" to-port="0" />
		<edge from-layer="781" from-port="1" to-layer="783" to-port="0" />
		<edge from-layer="782" from-port="0" to-layer="783" to-port="1" />
		<edge from-layer="783" from-port="2" to-layer="788" to-port="0" />
		<edge from-layer="784" from-port="0" to-layer="788" to-port="1" />
		<edge from-layer="785" from-port="0" to-layer="788" to-port="2" />
		<edge from-layer="786" from-port="0" to-layer="788" to-port="3" />
		<edge from-layer="787" from-port="0" to-layer="788" to-port="4" />
		<edge from-layer="788" from-port="5" to-layer="793" to-port="0" />
		<edge from-layer="789" from-port="0" to-layer="790" to-port="0" />
		<edge from-layer="790" from-port="1" to-layer="792" to-port="0" />
		<edge from-layer="791" from-port="0" to-layer="792" to-port="1" />
		<edge from-layer="792" from-port="2" to-layer="793" to-port="1" />
		<edge from-layer="793" from-port="2" to-layer="795" to-port="0" />
		<edge from-layer="794" from-port="0" to-layer="795" to-port="1" />
		<edge from-layer="795" from-port="2" to-layer="796" to-port="0" />
	</edges>
	<rt_info>
		<Runtime_version value="2024.3.0-16041-1e3b88e4e3f-releases/2024/3" />
		<conversion_parameters>
			<framework value="pytorch" />
			<is_python_object value="True" />
		</conversion_parameters>
		<nncf>
			<friendly_names_were_updated value="True" />
			<quantization>
				<advanced_parameters value="{}" />
				<fast_bias_correction value="True" />
				<ignored_scope value="None" />
				<model_type value="transformer" />
				<preset value="None" />
				<subset_size value="300" />
				<target_device value="ANY" />
			</quantization>
		</nncf>
	</rt_info>
</net>
